checkpoint_critic_1.pth (torch_old, 185386 bytes, 5 tensors)

fcs1.weight f4 [256, 48]
0.008979702 0.4719649 -0.08184084 0.2667694 -0.15122198 -0.4406155 -0.097991504 0.29718292
0.03470921 0.5372914 -0.056751918 0.07323902 -0.07375186 -0.6670005 0.049683962 0.036389213
0.2664794 0.52668875 0.07717218 0.24259233 -0.063778326 -0.9466229 0.11699847 0.15299843
0.086550675 0.28620487 -0.0249929 -0.35548666 0.080995925 -0.5044171 -0.06137697 -0.3216098
-0.06943238 0.21756412 -0.030260716 -0.20662946 0.024788842 -0.64101624 -0.05125577 -0.15092531
-0.16884953 0.12322284 0.002344276 -0.018967055 0.020981416 -0.94774103 0.009248082 0.057874963
0.513318 0.046520703 0.05385294 -0.14604302 -0.095888056 -0.7805403 0.021715082 -0.07352045
0.4124947 0.084462464 -0.03120662 -0.20093943 -0.058093272 -0.6182405 -0.039098468 -0.1830165
0.25435567 0.024391092 -0.017258951 -0.0078844335 0.032709666 -0.49030545 -0.035907805 -0.090654
0.29918995 0.15475838 -0.00095534197 -0.18364252 0.014643021 -0.7571166 -0.04746004 -0.1941522
0.3350337 0.057992518 -0.04804579 -0.109028846 -0.0019508236 -0.57654077 -0.008814113 -0.14907412
0.4648902 0.034212913 -0.0038883004 -0.18751718 -0.026560912 -0.4272791 -0.02460973 -0.1632691
0.11953832 -0.29864973 -0.0177689 0.119819924 0.10285193 -0.17578189 -0.031870253 0.21430841
0.20951301 -0.14055194 -0.054637067 0.020595113 0.066833116 -0.2986235 0.044455037 -0.000749727
0.20427516 -0.15535402 -0.11976014 0.082252 0.08974241 -0.4261782 -0.029462205 0.1957323
0.0025737945 0.42552066 -0.04379202 -0.12774065 -0.097892165 -0.16151235 0.03716962 -0.20533401
-0.05724704 0.39941546 -0.08269458 -0.3227165 -0.04191117 -0.31859195 -0.09657505 -0.31436262
-0.081368096 0.26432562 -0.13137619 -0.40298715 -0.0691922 -0.38937244 -0.11051798 -0.3382668
0.1562071 -0.41315213 -0.007792239 0.0487638 -0.082288004 -0.40841025 -0.04489341 0.07246
0.1721577 -0.43431926 -0.073363714 0.026071975 -0.0013632715 -0.37793893 -0.014165683 -0.0870184
0.094927266 -0.46897206 0.010690415 -0.07337487 0.0828797 -0.16474545 -0.050390273 -0.027921708
0.24471977 -0.585943 0.034431834 0.17312004 0.049523864 -0.49947855 0.06985605 0.22223504
0.12479143 -0.6223817 0.020735556 0.040211763 0.0029461146 -0.34340248 -0.085953735 -0.0022127838
0.26385456 -0.60325533 -0.018456664 -0.15828697 -0.053690717 -0.18551554 -0.03129732 -0.17580333
0.06418636 0.24630786 0.020503934 -0.09811408 -0.25262788 0.026798397 -0.052792422 -0.12303364
0.22925702 0.18370646 -0.0023390905 -0.086088635 -0.20955032 -0.049295627 0.010468574 0.0028357354
0.23540893 0.11486429 -0.038358774 -0.3169759 -0.2446886 -0.29125267 0.0058018346 -0.31028897
-0.10044425 -0.10020152 -0.027616842 0.020236172 0.23187834 0.0913088 -0.023723591 0.03470195
-0.07894209 -0.0024820864 -0.074955635 -0.2386202 0.29455268 -0.13428773 0.017908715 -0.14030555
-0.07039617 -0.07919433 -0.11651924 -0.43093106 0.2668109 -0.3577918 -0.056717895 -0.48905602
0.31134108 0.36264244 -0.01555546 -0.024941992 -0.19440976 -0.41788658 -0.0027434526 0.025489546
0.30618018 0.01942475 -0.052054312 -0.11870997 -0.35372937 -0.19173318 -0.036622047 -0.0873115
00000000: 9a1f 133c 62a5 f13e 2c9c a7bd 0096 883e
00000010: efd9 1abe 5b98 e1be c5af c8bd 5c28 983e
00000020: 3f2b 0e3d ee8b 093f b374 68bd 57fe 953d
00000030: 370b 97bd 8bc0 2abf 6981 4b3d db0c 153d
00000040: fd6f 883e 13d5 063f 730c 9e3d 206a 783e
00000050: 369e 82bd e155 72bf e59c ef3d 9fab 1c3e
00000060: 7b41 b13d 7289 923e e9bd ccbc 5902 b6be
00000070: 31e1 a53d 7b21 01bf 6b66 7bbd 0aaa a4be
00000080: 9032 8ebd 21c9 5e3e 52e5 f7bc ac96 53be
00000090: f811 cb3c a419 24bf 92f1 51bd 2a8c 1abe
000000a0: e4e6 2cbe 425c fc3d 6da2 193b cc60 9bbc
000000b0: 38e1 ab3c 289f 72bf 4485 173c 4c0e 6d3d
000000c0: cf68 033f 7e8c 3e3d e794 5c3d 4d8c 15be
000000d0: f560 c4bd 7dd1 47bf d4e3 b13c e491 96bd
000000e0: 8132 d33e a8fa ac3d 07a5 ffbc 11c3 4dbe
000000f0: 36f3 6dbd 0245 1ebf b725 20bd ad68 3bbe
00000100: e83a 823e d4cf c73c a562 8dbc b62d 01bc
00000110: 92fa 053d 5109 fbbe 1014 13bd cea8 b9bd
00000120: 6d2f 993e fb78 1e3e ea6f 7aba c90c 3cbe
00000130: 48e9 6f3c 65d2 41bf 7565 42bd d6cf 46be
00000140: 8a89 ab3e 9089 6d3d aacb 44bd 844a dfbd
00000150: c7b2 ffba 2d98 13bf 1269 10bc e3a6 18be
00000160: 1706 ee3e d722 0c3d dbd2 7ebb 8104 40be
00000170: 4596 d9bc 54c4 dabe 589a c9bc 0430 27be
00000180: 82d0 f43d 9ee8 98be 1690 91bc 2664 f53d
00000190: 08a4 d23d 2b00 34be 628a 02bd aa73 5b3e
000001a0: 948a 563e d9ec 0fbe 1ecb 5fbd 15b7 a83c
000001b0: cddf 883d 2ee5 98be 7c16 363d 5489 44ba
000001c0: 822d 513e 2015 1fbe ce44 f5bd bd73 a83d
000001d0: deca b73d 0734 dabe b95a f1bc 0c6e 483e
000001e0: 1bad 283b d8dd d93e 435f 33bd 72ce 02be
000001f0: b07b c8bd 7e63 25be 2c3f 183d 1443 52be
00000200: df7b 6abd 2f80 cc3e c75b a9bd 193b a5be
00000210: 0cab 2bbd 7c1e a3be 24c9 c5bd 23f4 a0be
00000220: 51a4 a6bd b055 873e 7b87 06be 5554 cebe
00000230: a4b4 8dbd d35b c7be 4057 e2bd 4e31 adbe
00000240: c1f4 1f3e ad88 d3be 0a56 ffbb 8dbc 473d
00000250: 9d86 a8bd 261b d1be 27e2 37bd e965 943d
00000260: 1c4a 303e 185f debe b73f 96bd e594 d53c
00000270: cdaf b2ba 3681 c1be 2e17 68bc b436 b2bd
00000280: 3a69 c23d 1b1d f0be da26 2f3c 9045 96bd
00000290: d5bc a93d 08b3 28be 0866 4ebd 11bc e4bc
000002a0: d297 7a3e 5c00 16bf 6508 0d3d 6146 313e
000002b0: 89d9 4a3d a7bb ffbe b010 8f3d 9591 633e
000002c0: a692 ff3d 6854 1fbf 9ddd a93c 17b5 243d
000002d0: 9a13 413b 73d2 afbe 8308 b0bd 5a04 11bb
000002e0: f217 873e f16e 1abf 6e32 97bc fb15 22be
000002f0: ccea 5bbd c9f7 3dbe 9e31 00bd ca05 34be
00000300: 2374 833d 2138 7c3e def7 a73c 09f0 c8bd
00000310: 7158 81be 5088 db3c de3c 58bd 10f9 fbbd
00000320: 5ac2 6a3e 8c1d 3c3e 6d4b 19bb 3d4f b0bd
00000330: 5c94 56be 36ea 49bd 6284 2b3c bfd7 393b
00000340: 0a0f 713e f83d eb3d 171e 1dbd aa4a a2be
00000350: a68f 7abe 121f 95be 511d be3b 32de 9ebe
00000360: b7b5 cdbd 7436 cdbd b73c e2bc 54c6 a53c
00000370: 8471 6d3e 1c00 bb3d fa57 c2bc a223 0e3d
00000380: 64ac a1bd 80aa 22bb 5782 99bd db58 74be
00000390: 9ccf 963e b982 09be 4cb5 923c 42ac 0fbe
000003a0: de2b 90bd a330 a2bd a4a1 eebd ffa2 dcbe
000003b0: 709b 883e 7d30 b7be 0651 68bd 8d65 fabe
000003c0: 1968 9f3e 45ac b93e 54dc 7ebc 2653 ccbc
000003d0: 5a13 47be 3bf5 d5be 7fcb 33bb 74cf d03c
000003e0: a6c3 9c3e a720 9f3c e736 55bd 361e f3bd
000003f0: 041c b5be b455 44be 0001 16bd 5fd0 b2bd

fcs1.bias f4 [256]
-0.032230977 -0.27631426 -0.13256489 -0.3103232 -0.12905245 -0.3756108 -0.27755713 0.13295527
-0.29003635 -0.32346418 -0.28614777 -0.2993472 0.21786384 -0.014463959 -0.46704465 -0.35402694
-0.28123656 0.06991473 -0.3037296 0.07497343 -0.119093075 -0.3099002 -0.07505062 -0.20946279
-0.07258701 -0.24255797 0.10235881 -0.28375632 -0.26102176 -0.3682173 -0.34492865 -0.072708406
-0.09409811 -0.06945637 -0.011860842 -0.17662983 -0.4940735 -0.21853308 -0.2308138 -0.28490067
0.057363663 -0.067065604 -0.04085283 -0.16428895 -0.44565302 -0.11937002 -0.07483326 -0.04225015
-0.22695738 0.067685954 -0.32444432 0.084054366 -0.225511 -0.21160531 -0.27747327 0.31914023
-0.04534702 -0.1287295 -0.10812406 -0.14960536 -0.10402797 -0.12534212 -0.25317037 -0.18697397
-0.15344931 -0.07002709 -0.4624595 -0.19530356 -0.32675382 -0.18290208 -0.21732374 -0.3820101
-0.35314614 0.52322114 -0.22113948 -0.18556274 -0.20010078 0.106352545 -0.33874792 -0.3451399
-0.19590037 -0.21146667 0.042406168 -0.17291783 0.020954872 -0.1845355 -0.50528 -0.33512348
0.18223098 0.07632683 -0.38853 -0.39974156 -0.008825476 0.18072057 -0.20028712 -0.18988211
-0.28011096 0.3257926 -0.20880765 -0.07149445 -0.34450448 -0.40754214 -0.054661803 -0.08557528
-0.28207874 -0.15928651 -0.16277598 -0.43587518 -0.29425347 -0.3689664 -0.1270362 -0.12426417
-0.22501594 -0.22984354 -0.24077156 -0.3092183 -0.2593201 0.088383175 -0.28063577 -0.3564119
-0.3006738 -0.25286856 -0.3562595 -0.29795927 -0.28061017 -0.073895976 -0.36068395 0.073340945
-0.005240509 -0.19509709 -0.29802832 -0.460852 -0.38269296 -0.4708942 -0.115780175 -0.18025135
-0.32012022 -0.37114185 -0.36632216 -0.44747934 -0.12449899 -0.3200822 -0.31789014 -0.14867909
-0.20605072 -0.09375394 -0.25642332 -0.17651294 -0.13628475 -0.2194164 -0.19177486 -0.36160666
-0.13525654 -0.18574199 -0.12929502 -0.12468992 0.08182748 0.25363052 -0.21774213 -0.3119214
-0.27943704 -0.02835931 -0.3405389 -0.28514805 -0.38604558 -0.31570497 -0.34066087 -0.13609909
-0.19068487 -0.21467987 -0.1298021 -0.16703789 -0.08941873 -0.28002167 -0.1721417 -0.18572778
-0.1686417 -0.2923818 -0.106510445 -0.21886091 -0.024558928 -0.13328595 -0.1361479 -0.4206678
-0.29829565 -0.02175816 -0.1736759 0.022490995 -0.0011826002 -0.21908696 -0.098330624 -0.14228846
-0.06986891 0.0204357 -0.4281621 -0.07028466 -0.35504323 -0.35095766 -0.28918135 -0.12941457
-0.06407019 -0.21262799 0.076084286 -0.47059867 -0.2071946 -0.07390532 -0.22764726 -0.38449267
-0.30250132 -0.04631254 -0.222938 -0.3658666 -0.017877456 -0.1809719 -0.17520346 -0.10621398
0.10735848 0.06392599 -0.30978686 -0.2514575 0.103761345 -0.16713457 -0.33174568 -0.101852246
0.13441516 -0.33940414 -0.29364303 0.0060727405 0.08568571 -0.33812407 -0.22063401 -0.264533
-0.4568569 -0.4263534 -0.16694257 0.23587249 -0.35010207 0.11221274 0.3353911 -0.31753397
-0.20829356 -0.6652925 -0.18102671 -0.02886931 -0.2616087 -0.43410018 -0.24804676 -0.5190285
0.25403917 -0.00062616135 -0.35302114 -0.25537026 -0.10319719 -0.26967165 -0.23369811 -0.53482026
00000000: a104 04bd 1079 8dbe 17bf 07be afe2 9ebe
00000010: 5326 04be 0f50 c0be f81b 8ebe 6d25 083e
00000020: a57f 94be 199d a5be f681 92be 0944 99be
00000030: b317 5f3e 3efa 6cbc 7a20 efbe 0543 b5be
00000040: 3dfe 8fbe 742f 8f3d 7282 9bbe ab8b 993d
00000050: 12e7 f3bd 3dab 9ebe 24b4 99bd 6a7d 56be
00000060: 80a8 94bd 1e61 78be 7fa1 d13d 8248 91be
00000070: a5a4 85be fa86 bcbe 7d9a b0be 25e8 94bd
00000080: 83b6 c0bd 243f 8ebd fa53 42bc 73de 34be
00000090: 34f7 fcbe 23c7 5fbe 745a 6cbe 80de 91be
000000a0: 29f6 6a3d b159 89bd 4c55 27bd 5d3b 28be
000000b0: a22c e4be 4578 f4bd 2e42 99bd 7e0e 2dbd
000000c0: 8467 68be ef9e 8a3d 911d a6be b224 ac3d
000000d0: 5bec 66be 10af 58be fa10 8ebe 5966 a33e
000000e0: ccbd 39bd abd1 03be 2670 ddbd 2632 19be
000000f0: 9e0c d5bd af59 00be 8c9f 81be 1b76 3fbe
00000100: d121 1dbe 5d6a 8fbd 7ec7 ecbe a8fd 47be
00000110: 474c a7be af4a 3bbe 1d8a 5ebe d496 c3be
00000120: 92cf b4be d2f1 053f 6372 62be 2904 3ebe
00000130: 38e7 4cbe 5dcf d93d 5e70 adbe 2db6 b0be
00000140: 1b9a 48be b88a 58be 17b2 2d3d 5f11 31be
00000150: 8da9 ab3c e0f6 3cbe 085a 01bf 4e95 abbe
00000160: c29a 3a3e 3e51 9c3d 67ed c6be edaa ccbe
00000170: bb98 10bc d00e 393e 1118 4dbe 7570 42be
00000180: b46a 8fbe 4ace a63e acd1 55be af6b 92bd
00000190: e462 b0be 5da9 d0be 0ee5 5fbd 1842 afbd
000001a0: a06c 90be 011c 23be bfae 26be 082b dfbe
000001b0: 64a8 96be 2ae9 bcbe c715 02be 377e febd
000001c0: 946a 66be 1b5c 6bbe d28c 76be dc51 9ebe
000001d0: 9bc5 84be 3d02 b53d 7eaf 8fbe 9f7b b6be
000001e0: ebf1 99be fd77 81be a567 b6be 1e8e 98be
000001f0: 23ac 8fbe c656 97bd 91ab b8be c733 963d
00000200: 93b8 abbb 88c7 47be 2b97 98be cbf4 ebbe
00000210: 55f0 c3be 0b19 f1be 281e edbd cf93 38be
00000220: cce6 a3be 4e06 bebe 948e bbbe 031c e5be
00000230: 54f9 febd d0e1 a3be 7fc2 a2be 553f 18be
00000240: f6fe 52be 1102 c0bd eb49 83be cfbf 34be
00000250: 3b8e 0bbe b1ae 60be a160 44be 8224 b9be
00000260: b180 0abe 2633 3ebe ea65 04be 6e5d ffbd
00000270: 2a95 a73d dcdb 813e cbf7 5ebe 29b4 9fbe
00000280: 5f12 8fbe c951 e8bc 1d5b aebe edfe 91be
00000290: c4a7 c5be 15a4 a1be 1a6b aebe 8f5d 0bbe
000002a0: e542 43be 0ad5 5bbe d7ea 04be fb0b 2bbe
000002b0: 2b21 b7bd 005f 8fbe ea45 30be 6c2f 3ebe
000002c0: 69b0 2cbe 11b3 95be 2622 dabd 131d 60be
000002d0: ce2f c9bc 1d7c 08be 5b6a 0bbe c561 d7be
000002e0: 35ba 98be 2b3e b2bc 18d8 31be 093f b83c
000002f0: 7a01 9bba 5558 60be 9161 c9bd 11b4 11be
00000300: 6e17 8fbd c568 a73c 1038 dbbe 67f1 8fbd
00000310: 3ac8 b5be b9b0 b3be 940f 94be 4185 04be
00000320: 3b37 83bd 27bb 59be 14d2 9b3d 4ff2 f0be
00000330: d22a 54be ac5b 97bd 5d1c 69be 39dc c4be
00000340: 74e1 9abe 38b2 3dbd dc49 64be de52 bbbe
00000350: be73 92bc b350 39be 8968 33be b786 d9bd
00000360: c3de db3d a1eb 823d 629c 9ebe 0abf 80be
00000370: d480 d43d 5325 2bbe 92da a9be e997 d0bd
00000380: 21a4 093e 61c6 adbe 6158 96be d7fd c63b
00000390: fd7b af3d 991e adbe e2ed 61be df70 87be
000003a0: 26e9 e9be fe4a dabe fef2 2abe 8f88 713e
000003b0: 9440 b3be cbcf e53d 62b8 ab3e d093 a2be
000003c0: e84a 55be 9c50 2abf 115f 39be 557f ecbc
000003d0: 93f1 85be 6142 debe f8ff 7dbe 0ddf 04bf
000003e0: 6c11 823e fa24 24ba 30bf b4be e4bf 82be
000003f0: 0c59 d3bd 6712 8abe 8f4e 6fbe fbe9 08bf

fc2.weight f4 [128, 260]
-0.02158021 0.022324903 -0.025902497 -0.069896355 0.008905992 -0.008601226 0.04201792 -0.12725255
-0.06608983 -0.07277132 -0.073239945 0.0067243553 -0.030704018 0.08042263 -0.043274514 -0.0009855708
0.027477838 0.042890828 -0.13349827 -0.009998132 0.08399815 -0.05123011 -0.07740325 -0.021146946
-0.010803598 -0.07654353 -0.0945751 -0.050466396 -0.15825137 -0.09799236 -0.009528143 -0.07654932
-0.061940312 0.013229429 -0.0022725274 -0.08339145 0.0063130218 0.046860956 0.04731107 0.0024748528
-0.09196006 -0.0052961237 -0.089737825 -0.09024581 -0.032041553 0.042347714 -0.044759627 0.02220948
-0.15923744 -0.1255794 -0.0042216554 -0.005939579 0.01120238 -0.116663754 0.011481397 0.016244883
-0.14409311 -0.11689926 -0.01777268 0.011308474 -0.044883534 -0.07077254 -0.080791056 0.075713165
-0.058389936 -0.06657913 0.032445323 -0.09552352 -0.11956262 -0.11807862 -0.066805385 -0.09126391
0.05903801 -0.017971035 -0.086328164 0.0045386245 0.032486442 -0.060267832 -0.049515277 0.10867467
0.02503227 -0.06813684 -0.16144279 -0.06856191 -0.079559036 -0.14696567 0.050972726 -0.051685266
0.01421755 0.012607827 -0.09607747 -0.0075500594 0.013411243 -0.1051769 -0.06415866 0.017999025
-0.05505203 -0.1136769 -0.022804685 -0.11457056 -0.032780103 0.021004632 -0.007126426 -0.17016168
0.03837925 -0.047733042 -0.020625956 -0.06623875 -0.07457451 -0.12147299 -0.057546623 -0.029676441
-0.072046705 -0.055421136 -0.015346725 0.014917419 0.011241709 -0.08739427 -0.021671742 -0.10869662
-0.007553052 -0.009570675 0.05385831 -0.11144675 -0.11657402 0.03178802 -0.052497573 -0.17988643
-0.05951611 0.006139991 -0.0351808 -0.071433455 0.06926904 0.029703505 -0.042016443 -0.0037500113
0.012331629 -0.020211922 0.010787299 -0.050682686 0.017246468 -0.07892134 -0.004953149 -0.00040260487
-0.03204345 0.055045214 -0.03174975 -0.07715524 0.02435907 0.07208002 0.062297758 -0.022294814
-0.12595075 0.0033484804 0.062550575 -0.12814988 0.013049348 -0.16988993 -0.06722086 -0.029397592
0.0097969 -0.024889337 -0.036651902 -0.036180466 0.009096734 0.002607821 -0.09427039 0.034379296
0.0114839235 0.071474604 -0.059971225 0.08205309 -0.032770265 0.11825403 0.044762846 -0.026709732
-0.17831087 -0.08349968 0.053766623 -0.016237581 -0.119310856 -0.012146632 -0.1402972 0.031752657
-0.04785914 -0.09475271 -0.07082324 -0.1463625 -0.039254446 0.07601858 -0.11023682 -0.14499335
0.029411769 -0.05532748 -0.032165647 -0.025420383 -0.15114316 0.032765694 -0.09024426 -0.15141927
-0.19881548 -0.03765722 -0.098541826 -0.014153526 0.013818307 0.04084068 -0.038440842 -0.0042503388
0.017566122 0.026411878 0.022661608 -0.042598784 0.04255612 -0.09201641 -0.10945513 -0.12361138
-0.086926185 -0.18265149 0.02871003 -0.11405225 -0.01240348 0.104611754 -0.066885255 -0.16065097
-0.015093589 -0.0014252119 -0.011094574 -0.021119116 -0.0904571 -0.007927611 -0.17018914 -0.07472634
0.13510135 -0.024425542 -0.044011775 -0.03667379 -0.1485523 0.0010137712 0.04736101 -0.021591946
0.025366621 -0.14145915 -0.008796716 -0.07532757 0.068846345 0.06453299 -0.06099916 -0.09174464
-0.12027346 -0.053670626 0.044667467 -0.07858805 0.029956223 0.024846274 -0.09266282 -0.03880925
00000000: fbc8 b0bc b7e2 b63c 7931 d4bc d225 8fbd
00000010: 70ea 113c 28ec 0cbc fc1a 2c3d 7e4e 02be
00000020: 1b5a 87bd 2109 95bd d3fe 95bd fb57 dc3b
00000030: fe86 fbbc 9fb4 a43d 9e40 31bd 452e 81ba
00000040: 3419 e13c 4bae 2f3d c5b3 08be 34cf 23bc
00000050: 3907 ac3d aad6 51bd 9885 9ebd 5c3c adbc
00000060: 9301 31bc dbc2 9cbd 97b0 c1bd dab5 4ebd
00000070: a60c 22be 38b0 c8bd ee1b 1cbc e4c5 9cbd
00000080: 20b5 7dbd 3fc0 583c afee 14bb 23c9 aabd
00000090: 77dd ce3b 46f1 3f3d 41c9 413d 2431 223b
000000a0: 8e55 bcbd 1b8b adbb 77c8 b7bd ccd2 b8bd
000000b0: 013e 03bd cc74 2d3d df55 37bd a8f0 b53c
000000c0: 240f 23be e397 00be d055 8abb cda0 c2bb
000000d0: 308a 373c 68ed eebd 781c 3c3c fd13 853c
000000e0: 258d 13be e168 efbd 0398 91bc 2d47 393c
000000f0: ccd7 37bd 32f1 90bd c875 a5bd 810f 9b3d
00000100: 492a 6fbd a45a 88bd 63e5 043d d6a1 c3bd
00000110: 3fdd f4bd 34d3 f1bd 43d1 88bd 93e8 babd
00000120: d7d1 713d fe37 93bc d2cc b0bd beb8 943b
00000130: 8110 053d 67db 76bd 88d0 4abd d390 de3d
00000140: 7a10 cd3c 548b 8bbd 4251 25be 306a 8cbd
00000150: d9ef a2bd 2b7e 16be c7c8 503d eeb3 53bd
00000160: baf0 683c 0f91 4e3c 44c4 c4bd 7d66 f7bb
00000170: d5ba 5b3c fd66 d7bd 9e65 83bd b172 933c
00000180: 3d7e 61bd 6fcf e8bd e4d0 babc f8a3 eabd
00000190: 6e44 06bd e811 ac3c cb84 e9bb dd3e 2ebe
000001a0: 8f33 1d3d b983 43bd c4f7 a8bc 2fa8 87bd
000001b0: 85ba 98bd d5c6 f8bd 02b6 6bbd 021c f3bc
000001c0: 398d 93bd 4601 63bd d470 7bbc 3168 743c
000001d0: 252f 383c c4fb b2bd f088 b1bc 559c debd
000001e0: 987f f7bb 52ce 1cbc 889a 5c3d 323e e4bd
000001f0: 5cbe eebd 2834 023d b207 57bd 2634 38be
00000200: 2ac7 73bd fa31 c93b be19 10bd b44b 92bd
00000210: eddc 8d3d c454 f33c 6f19 2cbd c0c2 75bb
00000220: 9a0a 4a3c 7993 a5bc 36bd 303c a698 4fbd
00000230: 7748 8d3c 83a1 a1bd 064e a2bb b614 d3b9
00000240: fe3f 03bd 1777 613d 070c 02bd 9103 9ebd
00000250: ac8c c73c b19e 933d ef2b 7f3d 9da3 b6bc
00000260: 3cf9 00be 2e72 5b3b 841a 803d b939 03be
00000270: efcc 553c a0f7 2dbe 17ab 89bd 38d3 f0bc
00000280: 2d83 203c b9e4 cbbc 4e20 16bd f831 14bd
00000290: 780a 153c fae7 2a3b d610 c1bd 4ed1 0c3d
000002a0: 1127 3c3c 4761 923d 63a4 75bd 730b a83d
000002b0: 1d3a 06bd 2b2f f23d 3f59 373d 5ece dabc
000002c0: 2097 36be e101 abbd 643a 5c3d ad04 85bc
000002d0: 4059 f4bd ab02 47bc 12aa 0fbe 130f 023d
000002e0: f207 44bd b50d c2bd c60b 91bd 0de0 15be
000002f0: 45c9 20bd a1af 9b3d d8c3 e1bd 2379 14be
00000300: f3f0 f03c 119f 62bd 20c0 03bd 683e d0bc
00000310: 46c5 1abe 5235 063d fcd1 b8bd a70d 1bbe
00000320: 4996 4bbe 753e 1abd 4cd0 c9bd 31e4 67bc
00000330: 2e66 623c 8f48 273d 2574 1dbd 6d46 8bbb
00000340: d4e6 8f3c b95d d83c d6a4 b93c 107c 2ebd
00000350: 534f 2e3d 1973 bcbd 032a e0bd f727 fdbd
00000360: 5b06 b2bd fe08 3bbe 4c31 eb3c 3a94 e9bd
00000370: f737 4bbc b03e d63d 23fb 88bd b081 24be
00000380: 1a4b 77bc 2dce baba 04c6 35bc ff01 adbc
00000390: 9241 b9bd cfe2 01bc 1046 2ebe 200a 99bd
000003a0: 0258 0a3e 1318 c8bc b145 34bd 4237 16bd
000003b0: 181e 18be 84e0 843a 9efd 413d 98e1 b0bc
000003c0: a9cd cf3c abda 10be 1a20 10bc 5745 9abd
000003d0: 50ff 8c3d df29 843d 41da 79bd 9de4 bbbd
000003e0: ef51 f6bd bbd5 5bbd 3cf5 363d c6f2 a0bd
000003f0: c166 f53c 6a8a cb3c 01c6 bdbd 73f6 1ebd

fc2.bias f4 [128]
-0.12088227 -0.20172504 0.043871906 -0.0578732 -0.055004917 0.014383794 -0.15669362 -0.080164656
-0.09322409 -0.1888463 -0.045505363 -0.107531376 -0.16446793 -0.13727286 -0.07457616 -0.27991033
-0.060781572 -0.19906501 -0.062154364 -0.06558911 -0.14053184 0.026624592 -0.11347786 -0.07807135
-0.06268983 -0.12123431 0.56108135 -0.11794818 0.26460534 -0.16801056 -0.12487475 -0.07662874
-0.055655953 0.075751066 -0.35591272 -0.13173427 0.2044239 -0.02634607 -0.111188434 -0.16136609
-0.20150644 -0.08679784 -0.07139875 -0.06959595 -0.11891022 -0.12024167 -0.23933373 -0.10886979
-0.1450866 -0.047482718 -0.08040366 -0.12929463 -0.09045008 0.01196574 -0.085420005 -0.37076932
-0.04326698 -0.22746018 -0.090105936 -0.11551381 -0.12179005 -0.120941386 -0.093467176 -0.009970012
-0.0847708 -0.38394305 -0.1794473 -0.13703755 -0.115981445 0.327424 -0.4336298 -0.099702395
-0.058945566 -0.124056034 0.0074767526 -0.006724013 -0.11052037 -0.06816182 -0.046119973 -0.054011334
-0.16663356 -0.022721445 -0.17207526 -0.029061098 0.21304485 -0.20761895 -0.20191364 -0.05362019
-0.063058704 -0.18146789 -0.06417373 -0.041761883 0.020932622 -0.13836066 -0.28675717 -0.26088673
-0.054694086 -0.026705967 -0.14843048 -0.090320654 -0.13943842 -0.019717375 -0.11539772 -0.1400841
-0.06701009 0.07170222 -0.20776169 -0.10978965 -0.37808627 -0.22627456 -0.17136772 -0.23003925
-0.045756068 -0.17614311 -0.15928036 -0.035646703 -0.01707175 -0.13673268 -0.07995554 -0.01954488
-0.06536848 -0.16604106 -0.12981765 -0.12927385 0.19025548 -0.1443057 -0.25838298 -0.16212463
00000000: 2091 f7bd 0291 4ebe 07b3 333d 730c 6dbd
00000010: d64c 61bd 01aa 6b3c 4b74 20be 5e2d a4bd
00000020: 46ec bebd ed60 41be d563 3abd 6939 dcbd
00000030: 486a 28be 4291 0cbe 63bb 98bd 6850 8fbe
00000040: 19f6 78bd b3d7 4bbe 9395 7ebd 9553 86bd
00000050: 94e7 0fbe d11b da3c 1567 e8bd dfe3 9fbd
00000060: 8763 80bd b249 f8bd 07a3 0f3f d18e f1bd
00000070: 5a7a 873e f60a 2cbe 55be ffbd 87ef 9cbd
00000080: 7ff7 63bd 6023 9b3d 313a b6be 59e5 06be
00000090: 8054 513e b7d3 d7bc c3b6 e3bd 273d 25be
000000a0: b457 4ebe 11c3 b1bd 8239 92bd 5288 8ebd
000000b0: 3487 f3bd 4441 f6bd e713 75be 20f7 debd
000000c0: 9591 14be 3d7d 42bd adaa a4bd d065 04be
000000d0: e43d b9bd f30b 443c aff0 aebd 7ad5 bdbe
000000e0: b838 31bd 52eb 68be 7689 b8bd 8192 ecbd
000000f0: 106d f9bd 1eb0 f7bd b86b bfbd 4359 23bc
00000100: 509c adbd 2f94 c4be 08c1 37be 9253 0cbe
00000110: ae87 edbd 1ea4 a73e ba04 debe c530 ccbd
00000120: e870 71bd 1711 febd 8cff f43b 1c55 dcbb
00000130: 8158 e2bd 6d98 8bbd 4ce8 3cbd fd3a 5dbd
00000140: fda1 2abe 5322 babc 7f34 30be 8a11 eebc
00000150: 6e28 5a3e 109a 54be 73c2 4ebe d8a0 5bbd
00000160: ec24 81bd b8d2 39be 846d 83bd 820e 2bbd
00000170: e47a ab3c 6bae 0dbe d6d1 92be f292 85be
00000180: e806 60bd 79c6 dabc 29fe 17be 09fa b8bd
00000190: f2c8 0ebe 5586 a1bc a455 ecbd 3572 0fbe
000001a0: 963c 89bd 9dd8 923d 7bbf 54be 65d9 e0bd
000001b0: 8694 c1be 85b4 67be 057b 2fbe 698f 6bbe
000001c0: b76a 3bbd dc5e 34be 641a 23be 4702 12bd
000001d0: 0eda 8bbc a703 0cbe bbbf a3bd 961c a0bc
000001e0: e9df 85bd ab06 2abe ebee 04be 5d60 04be
000001f0: 55d2 423e e0c4 13be c64a 84be 0004 26be

fc3.weight f4 [1, 128]
-0.025513195 -0.014466566 0.011383069 0.029399257 0.009760893 0.009817923 0.011220499 -0.038614195
0.0044518164 -0.012950953 -0.014754083 -0.007377743 0.0005429308 0.001401318 -0.00097532594 -0.036115944
0.015088483 -0.004406617 0.0066872733 0.013382792 0.018285455 -0.011314754 0.022949306 0.0005725944
-0.01596878 -0.011288282 0.019379765 0.021149887 0.0049469853 -0.012529167 0.02504058 0.012676203
0.0031654201 0.011977687 -0.01418227 0.014564641 0.021638433 -0.0029252684 0.021272462 -0.024853919
-0.007650344 0.0055804793 -8.310647e-05 -0.0069880076 -0.025687233 -0.006560722 -0.003970656 0.011763135
0.01876939 -0.004394223 -0.047721863 -0.0101773385 -0.0059149433 0.0261059 0.012481635 -0.0040442804
0.00033741124 -0.018280555 -0.01016674 -0.022651773 -0.001344318 -0.01598807 0.017821036 -0.030070249
-0.0030819701 0.001102091 0.0058647827 -0.006695431 0.007047035 0.015287703 -0.0042515313 -0.00043389385
0.014992671 -0.011173978 -0.013043257 0.012164207 0.013311055 -0.0083714435 -0.041218877 -0.032427184
0.0125512555 0.013019799 -0.010598678 -0.017214147 0.01036794 0.013648945 -0.013480983 0.024506213
0.0077141016 -0.0053113643 0.02047702 0.01232833 0.0087556625 0.009264198 -0.044661835 0.0060710516
-0.009883615 -0.008370665 -0.012230017 -0.0031401247 0.044003513 0.027862484 -0.02536191 -0.013913883
0.0066206506 -0.008218036 0.0069298814 -0.0004325173 -0.02469826 -0.04121334 -0.0020771758 -0.0137010915
-0.0011862627 -0.023908915 -0.01691797 0.013041766 -0.023180008 0.025154756 -0.018971533 -0.007552845
-0.030714545 0.0138445925 -0.008160727 -0.001796456 0.006518747 0.022128444 0.0008035694 -0.0005134174
00000000: 0c01 d1bc 2d05 6dbc 0d80 3a3c b6d6 f03c
00000010: 27ec 1f3c 5bdb 203c 2fd6 373c eb29 1ebd
00000020: 8be0 913b 3c30 54bc 1cbb 71bc fec0 f1bb
00000030: 7853 0e3a 6eac b73a 04ad 7fba 50ee 13bd
00000040: af35 773c 6265 90bb ea20 db3b 7f43 5b3c
00000050: 61cb 953c 8561 39bc 2f00 bc3c 291a 163a
00000060: f5d0 82bc 7df2 38bc 50c2 9e3c 8742 ad3c
00000070: 521a a23b 2347 4dbc e721 cd3c d9af 4f3c
00000080: f072 4f3b 0f3e 443c c05c 68bc 88a0 6e3c
00000090: 1543 b13c dcb5 3fbb 9643 ae3c 729a cbbc
000000a0: bdaf fabb 74dc b63b 7249 aeb8 a8fb e4bb
000000b0: 086e d2bc 53fb d6bb 471c 82bb 2aba 403c
000000c0: 44c2 993c 6afd 8fbb 0078 43bd dabe 26bc
000000d0: 24d2 c1bb 0adc d53c c67f 4c3c e285 84bb
000000e0: 92e6 b039 1ac1 95bc 6692 26bc 3690 b9bc
000000f0: d433 b0ba 6af9 82bc 6cfd 913c e255 f6bc
00000100: e1fa 49bb 0a74 903a 5d2d c03b 5965 dbbb
00000110: d0ea e63b 4679 7a3c 6e50 8bbb 3f7c e3b9
00000120: d2a3 753c 1013 37bc 63b3 55bc 624c 473c
00000130: 9c16 5a3c 6128 09bc 20d5 28bd 5ed2 04bd
00000140: c8a3 4d3c ff50 553c 14a6 2dbc af04 8dbc
00000150: 4bde 293c d39f 5f3c 57df 5cbc 41c1 c83c
00000160: 93c6 fc3b f40a aebb 6cbf a73c c4fc 493c
00000170: e973 0f3c ddc8 173c 54ef 36bd acef c63b
00000180: e3ee 21bc 1d25 09bc 6960 48bc 8dca 4dbb
00000190: 073d 343d dd3f e43c c8c3 cfbc 0ef7 63bc
000001a0: 0bf2 d83b f1a4 06bc 0f14 e33b 7dc3 e2b9
000001b0: 0154 cabc 52cf 28bd 3a21 08bb 8b7a 60bc
000001c0: 5f7c 9bba a1dc c3bc 8e97 8abc 22ad 553c
000001d0: 00e4 bdbc 5911 ce3c 306a 9bbc db7d f7bb
000001e0: 129d fbbc 6ed4 623c 92b4 05bc 1077 ebba
000001f0: 379b d53b b646 b53c a1a6 523a dc96 06ba
