checkpoint_actor_0.pth (torch_old, 183852 bytes, 6 tensors)

fc1.weight f4 [256, 48]
0	0xbe02b5df	-0.12764691
1	0x3e43bed5	0.19115765
2	0x3ae14c38	0.0017188853
3	0x3e90bc4a	0.28268653
4	0x3e31304e	0.17303583
5	0xbeec2717	-0.46123573
6	0x3bddfdd0	0.0067746416
7	0x3eac0c11	0.33602956
8	0xbd869abd	-0.06572483
9	0x3ed7e2a6	0.42165107
10	0xbc8865ce	-0.016650107
11	0x3e79f827	0.24411069
12	0x3e31d299	0.17365493
13	0xbf497794	-0.78698087
14	0x3d3906c7	0.04517248
15	0x3eab7059	0.33484152
16	0xbd1fffc0	-0.03906226
17	0x3ef8ec4a	0.48617774
18	0xbe3586fc	-0.17727274
19	0x3e8a9618	0.27067637
20	0x3e885015	0.26623598
21	0xbf868dfb	-1.0512079
22	0xbe0e0b9f	-0.1387162
23	0x3eae7a85	0.3407785
24	0x3dffd3cc	0.12491569
25	0xbf17f6a9	-0.5936075
26	0x3d6671e7	0.05626097
27	0x3c572e7b	0.01313364
28	0xbe338ff2	-0.1753538
29	0xbf039e3a	-0.5141331
30	0x3e1aaf04	0.15105826
31	0x3c98bcd7	0.018644733
32	0x3e4008ef	0.18753408
33	0xbefa150c	-0.48844182
34	0x3e31b4bd	0.17354102
35	0x3dbf8b45	0.093527354
36	0xbe463ddf	-0.1935954
37	0xbf49060c	-0.7852485
38	0x3e1010ce	0.1406891
39	0x3e0ff096	0.1405662
40	0x3ddc2b91	0.10750497
41	0xbee2ea63	-0.44319448
42	0x3d5073ea	0.050891794
43	0x3e1722d9	0.14759387
44	0xbe839e7c	-0.2570685
45	0xbf85ea0f	-1.0462054
46	0x3dc7c507	0.09754377
47	0x3e382d64	0.17986065
48	0xbb86d6a9	-0.004114945
49	0x3f2c4b7a	0.6730267
50	0x3d958113	0.073000096
51	0xbd460468	-0.048344046
52	0xbe91ab19	-0.2845085
53	0xbecabe2f	-0.39598224
54	0x3dd905b1	0.10596789
55	0xbcc84e16	-0.024451297
56	0x3d3d9b85	0.046290893
57	0x3f2ca683	0.67441577
58	0xbde05302	-0.109533325
59	0xbcca104c	-0.024665974
60	0xbea65edc	-0.32494247
61	0xbeee9115	-0.46595064
62	0xbca6a734	-0.0203434
63	0x3c691860	0.014227003
64	0x3c96eb5e	0.018422779
65	0x3f3d0b06	0.73844945
66	0xbdfa6660	-0.12226558
67	0xbe3696df	-0.1783099
68	0xbe0384bb	-0.12843601
69	0xbf4be128	-0.79640436
70	0xbe0befd1	-0.13665701
71	0xbe647ee7	-0.22314034
72	0x3cc7998b	0.024365207
73	0xbdf0a31b	-0.1174986
74	0x3d130df0	0.035901964
75	0xbed95924	-0.4245082
76	0x3e72bfa9	0.23705925
77	0xbecd7dc8	-0.40135026
78	0x3d032fd9	0.032028053
79	0xbef2b13d	-0.47400847
80	0x3d0b87f9	0.03406522
81	0xbe610f8c	-0.21978587
82	0x3d3fa0f5	0.04678436
83	0xbd952c2f	-0.07283818
84	0x3ea3c382	0.31985098
85	0xbf12f9a5	-0.5741218
86	0x3ca318be	0.019909259
87	0xbe0db819	-0.13839759
88	0xbb828e6a	-0.0039842622
89	0x3cbb26bf	0.022845624
90	0xbe469e87	-0.19396411
91	0x3e2931e1	0.16522934
92	0x3cce43a8	0.025178745
93	0xbf458a42	-0.7716409
94	0xbe878f77	-0.26476642
95	0x3e51ebad	0.2050006
96	0xbda5a4c7	-0.080880694
97	0x3ee25786	0.442074
98	0x3e282ff1	0.16424538
99	0xbeb43321	-0.35195258
100	0x3e55b31c	0.20869106
101	0xbe1008b3	-0.14065818
102	0x3e0bb89b	0.1364464
103	0xbe84ad97	-0.2591369
104	0xbc48dcf2	-0.012259709
105	0x3ecaf0ac	0.39636743
106	0x3dbc0c92	0.09182085
107	0xbe7161ca	-0.2357246
108	0x3e9d4b03	0.30721292
109	0xbf4561d7	-0.77102417
110	0x3d7a448b	0.061100524
111	0xbea2b57c	-0.31779087
112	0xbd6803a6	-0.056644104
113	0x3edeadfd	0.43492118
114	0x3d6cd806	0.057823204
115	0x3dc44598	0.095835865
116	0x3f029201	0.51004034
117	0xbfc9de83	-1.577103
118	0x3d2c89b3	0.042123508
119	0x3de29de7	0.11065274
120	0x3eee18d6	0.46503323
121	0xbef64abc	-0.48103893
122	0x3cdf168b	0.027232429
123	0xbd981847	-0.074265055
124	0xbe7a20b1	-0.24426533
125	0xbe10b5ab	-0.14131801
126	0x3dc35ae0	0.095388174
127	0xbdc81199	-0.097689815
128	0x3ebf0bf3	0.37313804
129	0xbe82b146	-0.25525874
130	0x3c27d8a2	0.01024452
131	0x3e0719d3	0.13193445
132	0xbeb49ed2	-0.3527742
133	0xbf411234	-0.754184
134	0x3d937d30	0.07201612
135	0x3d0952e7	0.033526327
136	0x3e9b0eb9	0.3028467
137	0xbe2dccee	-0.16972706
138	0xbdab014a	-0.08349855
139	0x3d8905f9	0.06690592
140	0xbf069479	-0.525703
141	0xbfce3879	-1.6110984
142	0x3cbd2868	0.023090556
143	0x3d1003e2	0.035159953
144	0x3dcf4919	0.10121364
145	0xbe6b985c	-0.23007339
146	0xbd674eb2	-0.056471534
147	0x3eb91ae5	0.3615333
148	0xbef098d5	-0.46991602
149	0xbdc20989	-0.09474475
150	0xbc0ee921	-0.008722574
151	0x3e977c14	0.29586852
152	0x3d1b6aa0	0.037943482
153	0xbe8310e1	-0.25598815
154	0xbb346edb	-0.0027531895
155	0x3db7ee9c	0.08981058
156	0x3c9c199b	0.019055178
157	0xbd20ca8d	-0.039255667
158	0xbcce5506	-0.025187027
159	0x3de66947	0.11250549
160	0x3e5229c2	0.20523742
161	0xbe02b5e6	-0.12764701
162	0x3dc8b046	0.097992465
163	0x3ea316cf	0.3185334
164	0x3f049c6c	0.5180118
165	0xbdc9fab9	-0.09862275
166	0x3b7f55fd	0.0038961165
167	0x3eadd4b1	0.33951333
168	0xbe44b71f	-0.1921048
169	0xbf90e198	-1.1318846
170	0xbda60c41	-0.08107806
171	0xbd875233	-0.06607475
172	0x3ebe3903	0.3715287
173	0xbe07beb9	-0.13256349
174	0xbd5b8884	-0.05359699
175	0xbd8cdb4a	-0.068777636
176	0xbe632b69	-0.22184528
177	0xbf92e766	-1.1476867
178	0xbdeff971	-0.11717499
179	0x3d54fc8a	0.051998653
180	0x3c3b193a	0.011419589
181	0xbdab9756	-0.083784744
182	0xbda9a4a6	-0.08283357
183	0xbc59b738	-0.013288312
184	0xbe317817	-0.17330967
185	0xbf8eb669	-1.1149417
186	0xbd250df8	-0.040296525
187	0xbf037de1	-0.5136395
188	0xbeeade9c	-0.45872962
189	0x3c48a007	0.012245185
190	0xbdfea38e	-0.12433539
191	0xbf06b997	-0.5262694
192	0xbdc92af2	-0.09822644
193	0x3e5a0921	0.21292545
194	0x3c1577eb	0.009122829
195	0xbf146729	-0.5796991
196	0xbd4fa8cb	-0.050698083
197	0xbea23c78	-0.3168676
198	0x3d9b5bab	0.07585844
199	0xbf1b129c	-0.6057527
200	0x3ccb49f0	0.02481553
201	0xbe76e970	-0.24112487
202	0x3cc50b07	0.02405311
203	0xbf917584	-1.1363988
204	0x3e8fdcea	0.28098232
205	0xbc4e1be5	-0.012579893
206	0xbd30b16d	-0.043137956
207	0xbf8c4754	-1.0959268
208	0x3d82fef4	0.06396285
209	0xbea72c27	-0.32650873
210	0xbc4d1aba	-0.012518579
211	0xbed31110	-0.41223955
212	0x3ef03b93	0.46920452
213	0x3e1ee803	0.15518193
214	0x3cf4e9b9	0.029896604
215	0xbef4f54e	-0.47843403
216	0x3ea39aae	0.3195395
217	0xbe60e8cf	-0.2196381
218	0xbdae3085	-0.08505348
219	0x3e4363f2	0.19081095
220	0xbca32cf5	-0.019918898
221	0xbe8f4bd3	-0.27987537
222	0xbcd15017	-0.025550885
223	0x3e9f4962	0.31110674
224	0x3e33a325	0.17542703
225	0xbe6e9361	-0.23298408
226	0xbdb68aea	-0.089132145
227	0x3e444a15	0.19168885
228	0xbe934651	-0.28764585
229	0xbdb1c497	-0.08680075
230	0xbd0f7f21	-0.03503335
231	0x3e04c456	0.12965521
232	0x3e1341c3	0.14380555
233	0xbe277095	-0.1635154
234	0xbce7c8e6	-0.028294038
235	0x3e492e94	0.19646674
236	0xbed285f1	-0.41117814
237	0x3e04c8bc	0.12967199
238	0x3d0b1cbb	0.033962946
239	0x3e123d6f	0.14281248
240	0xbe82be92	-0.2553602
241	0x3e995b87	0.29952642
242	0x3d968075	0.0734872
243	0xbf0fe90c	-0.56214976
244	0x3d225228	0.03962913
245	0xbe5f2adc	-0.21793693
246	0x3db9aa20	0.09065652
247	0xbf104934	-0.563617
248	0xbe78acac	-0.24284619
249	0x3c614dd6	0.013751468
250	0x3d356d80	0.04429388
251	0xbedf3689	-0.43596295
252	0x3e15e875	0.14639457
253	0xbc9dab54	-0.019246735
254	0x3cc393ce	0.02387419
255	0xbee14ed5	-0.44005457

fc1.bias f4 [256]
0	0x3be7cebe	0.007074206
1	0xbd6ea4ba	-0.058262564
2	0x3d3ee072	0.046600766
3	0xbe0b5830	-0.1360786
4	0xbe831fbe	-0.25610155
5	0xbe104027	-0.14086972
6	0x3d7ca26d	0.06167834
7	0x3e695193	0.22785024
8	0xbe936aec	-0.28792512
9	0xbe89b877	-0.26898548
10	0xbee6e5bb	-0.45097145
11	0xbe613ddc	-0.21996254
12	0x3d805482	0.062661186
13	0x3cae4584	0.021273382
14	0xbee5050e	-0.4473042
15	0x3dde6af0	0.108602405
16	0xbe178df4	-0.14800245
17	0xbe827aa4	-0.25484192
18	0xbe08c7d7	-0.13357483
19	0xbe91f713	-0.28508815
20	0x3e7199ad	0.23593779
21	0xbe9dc22c	-0.30812204
22	0x3d50e640	0.051000834
23	0xbe7a3ae3	-0.24436526
24	0xbdc3fa11	-0.09569181
25	0xbe186cd9	-0.14885272
26	0xbe2e3ed0	-0.17016149
27	0xbe708280	-0.23487282
28	0x3d00cc7b	0.031445008
29	0xbeb36e29	-0.35044983
30	0xbe7d9086	-0.24762163
31	0x3da2a1ec	0.079410404
32	0x3cf7bac9	0.030240433
33	0x3e038ab9	0.12845887
34	0xbe097ca9	-0.1342646
35	0xbde568e6	-0.112016484
36	0xbe6263e0	-0.22108412
37	0xbe97e42e	-0.29666275
38	0xbf09a2bd	-0.53763944
39	0xbea39480	-0.31949234
40	0xbe352296	-0.17688975
41	0xbea5e897	-0.32404014
42	0xbe0519bb	-0.12998097
43	0xbe749b18	-0.23887289
44	0xbeede6bd	-0.46465102
45	0xbe6cb8f7	-0.23117433
46	0xbea2b6db	-0.31780133
47	0xbeab6f48	-0.33483338
48	0xbe08c1d8	-0.13355196
49	0xbc1d36c2	-0.009595575
50	0xbe3791b0	-0.17926669
51	0xbe0ecc4b	-0.13945119
52	0x3dc466e7	0.095899396
53	0xbe9c509d	-0.30530253
54	0xbea94cce	-0.3306641
55	0x3d561da1	0.05227435
56	0x3e4cb089	0.19989218
57	0x3de51ce2	0.111871496
58	0xbd49c747	-0.04926231
59	0xbdfaf472	-0.122536555
60	0x3c77b343	0.015118423
61	0xbe4c1ecf	-0.19933628
62	0xbdd40849	-0.10353143
63	0x3d8adc08	0.06780249
64	0x3e05679f	0.1302781
65	0xbe83c3bd	-0.25735274
66	0xbe9bb61b	-0.30412373
67	0xbe579701	-0.21053697
68	0xbe650319	-0.22364463
69	0xbe280bda	-0.16410771
70	0x3d2875a8	0.04112783
71	0xbeb9cc31	-0.36288598
72	0x3cabed36	0.020987134
73	0xbe4b4240	-0.19849491
74	0xbe0b1b82	-0.13584712
75	0xbbee199f	-0.007266238
76	0xbe78c242	-0.24292853
77	0xbe8279aa	-0.25483447
78	0xbd896bf6	-0.06710045
79	0xbe4d2469	-0.2003342
80	0xbe48ab87	-0.19596682
81	0xbc610c0a	-0.0137357805
82	0xbe8c1b88	-0.27364755
83	0xbebeae64	-0.37242424
84	0xbd99e58e	-0.07514487
85	0xbea59099	-0.32336882
86	0xbe240750	-0.16018414
87	0xbe58c58c	-0.21169108
88	0xbe5ddc65	-0.21666105
89	0xbe11c7d4	-0.14236385
90	0xbf2c0eec	-0.6721027
91	0xbe80ad42	-0.25132185
92	0xbdf423c2	-0.11920883
93	0x3bfcb268	0.0077116974
94	0xbe96cd4e	-0.2945351
95	0xbbb52117	-0.0055276263
96	0xbe62534d	-0.22102089
97	0x3f07cafe	0.53044116
98	0x3e0c5c2c	0.13707036
99	0xbe51d901	-0.20492937
100	0xbe9e7e72	-0.30955845
101	0xbe41da78	-0.18930995
102	0x3d4dcd64	0.050244704
103	0xbe382fe6	-0.17987022
104	0xbe8dc8f9	-0.27692392
105	0xbd96305d	-0.07333443
106	0xbe21f125	-0.15814646
107	0xbe254ad1	-0.16141821
108	0xbdde9ce2	-0.10869767
109	0xbed49101	-0.4151688
110	0xbec7a2c4	-0.38991368
111	0xbebc2a0a	-0.36750823
112	0xbefe6de7	-0.49693224
113	0xbe9fd507	-0.31217214
114	0xbdbd218e	-0.09234916
115	0xbe0d6a8c	-0.13810176
116	0xbe28099c	-0.16409916
117	0xbe5c102f	-0.21490549
118	0xbe9b58fa	-0.3034132
119	0xbeac5ac8	-0.3366301
120	0xbe903ac3	-0.28169832
121	0xbe95241b	-0.2912911
122	0xbe985a59	-0.2975643
123	0xbea56b31	-0.32308343
124	0xbe994fb6	-0.29943627
125	0x3e2ddc93	0.16978674
126	0xbe4e719f	-0.2016053
127	0xbde37ea3	-0.111081384
128	0xbd53a006	-0.051666282
129	0xbe2e0790	-0.16995072
130	0xbdf030ff	-0.11728095
131	0x3d45451c	0.04816161
132	0xbe0b1894	-0.13583595
133	0xbe91f9e1	-0.28510955
134	0xbea8bc76	-0.32956284
135	0xbe14596c	-0.14487237
136	0xbe6f4e17	-0.23369633
137	0xbe430075	-0.19043143
138	0xbd2e0963	-0.04248942
139	0xbeb0f626	-0.34562796
140	0xbe9b969f	-0.30388352
141	0xbeb8f944	-0.36127675
142	0xbd9bb95a	-0.076037124
143	0xbcb67b07	-0.02227546
144	0xbdecbcf0	-0.115594745
145	0xbe8c02db	-0.2734593
146	0xbd6678b4	-0.056267455
147	0xbcef5f02	-0.029220108
148	0xbe08f428	-0.13374388
149	0xbea179c2	-0.31538206
150	0xbeae2e97	-0.3401992
151	0xbe7bb084	-0.24579054
152	0x3d8c48b0	0.068498015
153	0xbdc292f1	-0.09500683
154	0xbd3f9da2	-0.04678119
155	0xbe5e59e0	-0.21713972
156	0x3c2cd742	0.010549368
157	0xbe2e2459	-0.17006053
158	0xbe9a32a0	-0.3011675
159	0xbe8fa2a9	-0.28053787
160	0xbed55f0d	-0.4167408
161	0x3d50b2d0	0.05095178
162	0xbe4f4ec6	-0.20244893
163	0xbec791ef	-0.38978526
164	0xbe8cfe2b	-0.27537665
165	0xbe2daba9	-0.16960014
166	0xbdf0f312	-0.11765112
167	0xbd4167bc	-0.04721807
168	0xbe712a63	-0.23551326
169	0xbe86abe0	-0.26303005
170	0xbd4ac4b0	-0.049503982
171	0xbe10d442	-0.1414347
172	0x3ea53d08	0.32273126
173	0xbd7be696	-0.0614992
174	0xbe1acc83	-0.15117078
175	0x39963e2b	0.00028656548
176	0xbe9e8ff7	-0.3096921
177	0xbe85b751	-0.26116422
178	0xbe3e832a	-0.18604723
179	0xbdb944c4	-0.09046319
180	0xbf020cdf	-0.5080089
181	0xbe71af4a	-0.23602024
182	0xbe8870df	-0.26648614
183	0xbe3c1740	-0.18368244
184	0xbbd97914	-0.006636748
185	0x3e104774	0.14089757
186	0xbe123e31	-0.14281537
187	0xbe4ebdd3	-0.201896
188	0xbe63b7c9	-0.22238077
189	0x3e85826d	0.2607607
190	0x3da9da73	0.08293619
191	0x3dcec2bb	0.10095736
192	0xbe4492d3	-0.19196634
193	0x3d9e22d8	0.0772149
194	0xbe766445	-0.24061687
195	0x3e90d146	0.28284663
196	0xbe6d1f02	-0.2315636
197	0xbe4b541e	-0.19856307
198	0xbdab4edc	-0.083646506
199	0xbe91f9f0	-0.28511
200	0xbd873ec5	-0.06603769
201	0x3cccf399	0.0250185
202	0xbe84a156	-0.2590434
203	0xbea7dd4a	-0.32786018
204	0xbe399746	-0.18124112
205	0x3e67e27b	0.22644989
206	0xbe2c0688	-0.16799366
207	0xbe85beca	-0.26122123
208	0xbccabcae	-0.024748173
209	0x3dd3e66a	0.10346682
210	0xbe51bd3d	-0.20482345
211	0xbe63579a	-0.22201386
212	0xbe7703f6	-0.24122605
213	0xbdf4d54c	-0.11954746
214	0xbe841019	-0.25793532
215	0x3e6b496f	0.22977231
216	0xbd2787d2	-0.040901013
217	0xbe68753b	-0.2270097
218	0xbe4fdfd7	-0.20300232
219	0xbe6510f4	-0.22369748
220	0xbe1f7f7a	-0.15575972
221	0xbe64d072	-0.2234514
222	0xbe9cc772	-0.30620915
223	0xbbc6d670	-0.0060680434
224	0x3e660250	0.2246182
225	0xbeed305e	-0.46325964
226	0xbeebeee4	-0.46080697
227	0xbe20b18c	-0.15692729
228	0xbe8d4a4a	-0.2759574
229	0xbec51dcc	-0.38499296
230	0xbe6b9be4	-0.23008686
231	0xbd80a9e5	-0.06282405
232	0xbe6032d1	-0.21894385
233	0xbe36ea03	-0.17862706
234	0xbe8fd312	-0.2809072
235	0x3d9ef8f0	0.07762325
236	0xbe8bd6d2	-0.27312332
237	0x3d3ba14a	0.045808114
238	0xbe07ce66	-0.13262329
239	0xbd788b79	-0.060679886
240	0xbe8989e7	-0.26863024
241	0xbed47f14	-0.41503203
242	0xbe2435ca	-0.16036144
243	0xbea0faf2	-0.31441456
244	0xbed01a4e	-0.4064507
245	0xbebc9c50	-0.36838007
246	0xbe37a34e	-0.1793339
247	0xbea04239	-0.31300524
248	0xbe2019d9	-0.1563486
249	0xbdfb0b9c	-0.12258074
250	0x3d6621e7	0.056184676
251	0xbec2f5cf	-0.38078162
252	0xbe485990	-0.19565415
253	0xbe9d76d7	-0.3075473
254	0xbd43ea6b	-0.04783098
255	0xbe74b331	-0.23896481

fc2.weight f4 [128, 256]
0	0x3e220aca	0.15824428
1	0x3de28a56	0.11061542
2	0x3e45b53a	0.19307414
3	0xbdf85387	-0.121253066
4	0xbe6e0b2e	-0.23246452
5	0xbdbfd2bf	-0.093663685
6	0xbe6ec5d9	-0.2331766
7	0xbe92a5cc	-0.28642118
8	0xbed4fd35	-0.41599432
9	0xbde1f4f0	-0.11033046
10	0x3da96fe9	0.08273298
11	0x3e26424e	0.1623623
12	0xbea99267	-0.3311951
13	0xbcf55591	-0.029948028
14	0xbe12e1fe	-0.14344022
15	0x3d8bcd8f	0.068263166
16	0xbda754b5	-0.081704535
17	0xbeb0da7e	-0.34541696
18	0xbe2ef7f7	-0.17086779
19	0xbd40085d	-0.046882976
20	0xbdf9d4ea	-0.12198813
21	0xbe2a48c6	-0.16629323
22	0xbddd9d4d	-0.10821018
23	0xbe82bce1	-0.25534728
24	0xbce2d3f3	-0.027688956
25	0xbda9bcf3	-0.08287992
26	0xbd8e2be9	-0.06941969
27	0x3e2658b7	0.1624478
28	0xbeafb3df	-0.34316918
29	0xbe17ff20	-0.14843416
30	0x3e0e691f	0.13907288
31	0x3dce9ef8	0.10088915
32	0x3e09774e	0.13424417
33	0xbc5116ad	-0.012761754
34	0x3e14a250	0.14515042
35	0xbe8a44e8	-0.27005696
36	0xbde7ca21	-0.1131785
37	0x3e337460	0.17524862
38	0x3d8d98b8	0.069138944
39	0x3cf38f96	0.029731553
40	0xbf07010f	-0.5273599
41	0xbe41038e	-0.18849012
42	0xbe2ad479	-0.16682614
43	0x3d8c0e6c	0.06838688
44	0xbd2fed11	-0.042950694
45	0xbe922d8b	-0.28550372
46	0xbde0c24b	-0.109745584
47	0x3e0ac582	0.13551906
48	0xbe2fe3c0	-0.17176723
49	0x3e9f1745	0.3107244
50	0x3d26d09a	0.04072628
51	0xbe47c795	-0.19509728
52	0xbbe930dd	-0.0071164207
53	0x3ec22f6e	0.3792681
54	0xbe570c5d	-0.2100081
55	0xbe8492ac	-0.25893152
56	0xbe394a09	-0.18094648
57	0xbde13911	-0.10997213
58	0xbda59dd0	-0.08086741
59	0x3e43801f	0.19091843
60	0x3dea76a3	0.114484094
61	0xbdcf2f8b	-0.1011649
62	0x3d8272f4	0.06369582
63	0xbf2880de	-0.65821636
64	0xbba1f781	-0.004942835
65	0x3b330d74	0.002732125
66	0x3e520b32	0.20512083
67	0xbeb9419d	-0.3618287
68	0xbe8ffe7b	-0.2812384
69	0xbcb481d5	-0.022034565
70	0xbd83d99f	-0.06437992
71	0xbeaf49f1	-0.342361
72	0xbebecbdf	-0.37264916
73	0xbc940305	-0.018067846
74	0xbe8ca7b8	-0.2747171
75	0xbd5b4a2e	-0.05353754
76	0xbea6cd79	-0.32578638
77	0x3c9db719	0.019252347
78	0xbe6e81b8	-0.23291671
79	0x3cbd4adb	0.023106983
80	0xbec3abc8	-0.38216996
81	0xbe3a92ae	-0.18220016
82	0xbc6d45fd	-0.014482019
83	0xbd0c9dec	-0.034330294
84	0xbe2d146a	-0.16902319
85	0xbd473635	-0.04863568
86	0xbde2688e	-0.110550985
87	0x3dd32a49	0.103108
88	0x3d1cb840	0.038261652
89	0xbafaa62f	-0.0019123013
90	0xbdf66ad5	-0.12032095
91	0x3cc2061b	0.023684552
92	0x3c7d19b9	0.015448027
93	0x3ea5c1cb	0.32374415
94	0x3e2b50af	0.16729997
95	0xbe2b7239	-0.16742791
96	0xbddc2dc9	-0.1075092
97	0xbeb71e65	-0.35765377
98	0x3e304829	0.17215027
99	0xbcc1b2b9	-0.023644792
100	0x3e89dc23	0.26925763
101	0xbcd36f54	-0.025809921
102	0x3ddb8c56	0.10720126
103	0x3d0f54c2	0.03499294
104	0x3c1b3c3c	0.00947481
105	0x3cccd8c3	0.025005704
106	0xbef9f798	-0.48821712
107	0xbe2b700e	-0.16741964
108	0xbba6413c	-0.0050736945
109	0xbd7446b8	-0.059637755
110	0xbdfc25d5	-0.123119034
111	0x3cee5841	0.029094817
112	0x3d1b0829	0.03784958
113	0xbdee1b03	-0.11626246
114	0xbe8c0545	-0.2734777
115	0xbd0cd5b0	-0.034383476
116	0xbe3ef9cc	-0.18649977
117	0xbf1ca577	-0.6118998
118	0xbea753fa	-0.32681257
119	0x3c54ecca	0.012995908
120	0xbe102c7f	-0.14079474
121	0x3e1cadb5	0.15300639
122	0xbeeaf78b	-0.45891985
123	0x3de913d3	0.11380734
124	0x3e1b7017	0.15179478
125	0xbba6e236	-0.0050928844
126	0xbe92692e	-0.2859587
127	0xbdab3137	-0.08358996
128	0xbc82a6fd	-0.015948767
129	0x3ed88400	0.42288208
130	0xbe9c8ced	-0.30576268
131	0xbeb5d1fb	-0.35511765
132	0x3de22ce3	0.11043718
133	0x3e15776b	0.14596336
134	0xbd2e24c4	-0.04251553
135	0xbcdb414b	-0.026764533
136	0xbd8f6a08	-0.07002646
137	0xbd888d84	-0.06667617
138	0xbdbaec54	-0.09127107
139	0xbe1b8fa4	-0.15191513
140	0x3e94c9e6	0.29060286
141	0x3b104654	0.0022014575
142	0x3e38e591	0.18056323
143	0xbd0c9b7b	-0.034327965
144	0x3e864077	0.26221058
145	0x3e2b6341	0.16737081
146	0xbd7224d9	-0.059117172
147	0xbdbf8616	-0.09351747
148	0xbd8963c8	-0.06708485
149	0x3d47de0b	0.04879574
150	0x3e972e91	0.29527715
151	0xbdeccef2	-0.11562909
152	0xbe6d45d5	-0.2317117
153	0x3c5de7e0	0.013544053
154	0xbeab03d5	-0.3340136
155	0x3d2980ee	0.041382723
156	0x3dca3b14	0.098745495
157	0x3c9bb1a1	0.019005599
158	0x3eafcb02	0.3433457
159	0xbe55a33e	-0.20863053
160	0xbcade7dd	-0.021228725
161	0xbe119960	-0.14218664
162	0xbe680929	-0.22659744
163	0xbe9497b1	-0.2902198
164	0x3d96e7d0	0.073684335
165	0x3dd66fa6	0.10470514
166	0xbe043e9a	-0.12914506
167	0xbdee3f2c	-0.11633143
168	0x3e4b47c3	0.19851594
169	0x3e9e2e75	0.3089482
170	0x3e063ca3	0.13109069
171	0xbe3b98fe	-0.1832008
172	0xbe453afb	-0.1926078
173	0x3c1415e3	0.009038421
174	0x3e7d0b17	0.24711262
175	0x3c8f8a50	0.017522007
176	0xbe169c23	-0.14707999
177	0xbf1ea03c	-0.6196325
178	0x3e4d906c	0.20074624
179	0xbe8e6a9b	-0.2781571
180	0x3ea2ff86	0.31835574
181	0xbe1268e0	-0.14297819
182	0x3d740b2a	0.05958096
183	0x3deaa066	0.11456375
184	0x3e04a8a6	0.1295496
185	0x3e201d7b	0.15636246
186	0x3d3d8573	0.046269845
187	0xbeaba941	-0.33527568
188	0xbcb8aba7	-0.022542788
189	0x3d321beb	0.043483656
190	0xbcd8756d	-0.02642318
191	0xbe9186f4	-0.28423274
192	0x3d731048	0.0593417
193	0xbcd3daa1	-0.025861086
194	0xbd94aee6	-0.07259922
195	0xbd6b4124	-0.05743517
196	0x3c7dcfab	0.015491406
197	0x3c9fc704	0.019504078
198	0xbdda95b5	-0.106730856
199	0xbcf5a50a	-0.029985923
200	0xbea8174f	-0.32830283
201	0xbead5e8d	-0.338612
202	0x3e478cb1	0.19487263
203	0xbeb925a8	-0.36161542
204	0xbdafa09a	-0.08575554
205	0xbea8a705	-0.32939926
206	0x3e8938f4	0.26801264
207	0x3e0177fe	0.1264343
208	0xbdef537d	-0.11685846
209	0xbc0270b3	-0.00796144
210	0x3e16b59b	0.14717714
211	0xbdd324bd	-0.10309742
212	0x3d3d8209	0.04626659
213	0x3e6cd242	0.23127082
214	0x3e71862d	0.2358634
215	0xbe0eab0a	-0.13932434
216	0xbe5e2d41	-0.2169695
217	0x3dda9e23	0.106746934
218	0xbd969b22	-0.07353808
219	0xbdc3c412	-0.09558882
220	0x3d1da1df	0.03848445
221	0xbdce6fc9	-0.10079915
222	0x3d098b43	0.033580076
223	0xbe05bc87	-0.13060199
224	0xbeebba0f	-0.4604039
225	0xbe132d3b	-0.14372723
226	0xbdb137bb	-0.08653208
227	0xbe43d9ab	-0.19126002
228	0xbe8ccde5	-0.27500835
229	0xbe09431f	-0.13404511
230	0xbd784a91	-0.060617987
231	0xbe0beeef	-0.13665365
232	0x3d6287b2	0.05530519
233	0xbd439b10	-0.0477553
234	0x3da33c3e	0.07970475
235	0xbe1105ab	-0.14162318
236	0xbdb25a33	-0.087086104
237	0x3e2869e0	0.16446638
238	0x3e6fae26	0.23406276
239	0xbda65e49	-0.08123452
240	0xbe3ad3d8	-0.18244874
241	0xbd47e141	-0.048798803
242	0x3e84e092	0.25952584
243	0x3d4f7afe	0.050654404
244	0xbe4028f1	-0.18765618
245	0xbe41491d	-0.18875547
246	0xbe393dcf	-0.18089984
247	0xbcace2b9	-0.021104204
248	0x3df94203	0.12170794
249	0x3e3bfa23	0.18357138
250	0xbea28d52	-0.31748444
251	0xbd5f50cc	-0.054520413
252	0xbe05e3dc	-0.13075203
253	0xbcba43f6	-0.022737484
254	0xbc5ca7cd	-0.013467741
255	0x3e433f13	0.1906703

fc2.bias f4 [128]
0	0xbe787c1d	-0.24266095
1	0xbbd2a940	-0.0064288676
2	0x3d84e2ff	0.064886086
3	0xbd97a5ca	-0.07404669
4	0xbe81e6f6	-0.25371522
5	0xbe922690	-0.28545046
6	0xbe25ef38	-0.16204536
7	0xbe343fd6	-0.17602476
8	0xbde64290	-0.112431645
9	0xbe0363ff	-0.12831114
10	0xbd099095	-0.03358515
11	0xbe5a8b96	-0.2134231
12	0xbe7c96e1	-0.2466693
13	0xbe1b54ed	-0.15169115
14	0xbdfd9e4a	-0.12383707
15	0xbdfb0d61	-0.12258411
16	0xbd6b34af	-0.05742329
17	0x3e2b3c12	0.16722134
18	0xbe02d4c5	-0.12776478
19	0xbe69c4c3	-0.22828965
20	0xbb9c23ec	-0.0047650244
21	0xbd9675ec	-0.073467106
22	0xbdcddfb8	-0.100524366
23	0xbd9d8977	-0.07692235
24	0xbe270906	-0.16312036
25	0xbe61a117	-0.22034107
26	0xbd9edea9	-0.07757313
27	0xbdcd5fe2	-0.10028054
28	0xbda4d780	-0.08048916
29	0xbe68e835	-0.2274483
30	0xbe8456b8	-0.2584741
31	0xbdba6282	-0.0910082
32	0xbe974fc5	-0.29553047
33	0xbe7a35da	-0.24434605
34	0xbe9b53d7	-0.30337402
35	0xbe8b32fd	-0.27187338
36	0xbde79149	-0.11307008
37	0xbe0c34ae	-0.1369197
38	0xbde645df	-0.112437956
39	0x3de7ca61	0.113178976
40	0xbe5ffad0	-0.21873021
41	0x3dac1ebd	0.084043
42	0xbdf4aa02	-0.11946489
43	0xbe6dfc4c	-0.23240775
44	0xbe4b5221	-0.19855548
45	0xbda9d721	-0.08292986
46	0xbe2eb956	-0.17062888
47	0xbdd51e72	-0.104061976
48	0xbeb5a0b2	-0.35474163
49	0xbe432c35	-0.19059832
50	0xbe3f05e1	-0.18654586
51	0xbdf6ebf0	-0.1205672
52	0xbe9558d8	-0.29169345
53	0xbe67ee4e	-0.226495
54	0xbe331cd8	-0.17491472
55	0xbe12f5d3	-0.14351587
56	0xbe54d85c	-0.2078566
57	0xbd3f504f	-0.046707448
58	0xbd1c8ce6	-0.03822031
59	0xbe133fb6	-0.14379773
60	0xbdc7d4ca	-0.09757383
61	0xbd1c42eb	-0.038149755
62	0xbe3a35e1	-0.18184616
63	0xbe36d97d	-0.17856403
64	0xbdd75650	-0.1051451
65	0xbe4b8c8e	-0.19877836
66	0xb9365b87	-0.00017390969
67	0xbe9754f9	-0.29557016
68	0xbdd9733a	-0.10617681
69	0xbe4ebde0	-0.20189619
70	0xbca3b5f7	-0.019984229
71	0xbe286040	-0.16442966
72	0xbd846a35	-0.0646557
73	0xbe54e615	-0.20790894
74	0xbd5aec67	-0.053448107
75	0xbdf0107a	-0.11721893
76	0xbdb2fd18	-0.0873968
77	0xbe092a57	-0.13395058
78	0xbe82b7c3	-0.25530824
79	0xbe19beca	-0.15014187
80	0xbebbf185	-0.36707702
81	0xbd9a8952	-0.07545723
82	0xbe35d8f2	-0.1775854
83	0xbe2fd25e	-0.17170092
84	0xbe38679d	-0.18008275
85	0xbdcde759	-0.10053892
86	0xbe800e7b	-0.25011048
87	0xbd60d0d2	-0.054886647
88	0xbe5f988f	-0.2183554
89	0xbe34d95e	-0.17661044
90	0xbe969b99	-0.29415587
91	0xbe259c32	-0.16172865
92	0xbe796686	-0.24355516
93	0xbd89244a	-0.06696375
94	0xbe15c4ca	-0.1462585
95	0xbdaceb85	-0.08443359
96	0xbe8075b2	-0.25089794
97	0xbe4aadee	-0.19792911
98	0xbd3a52ec	-0.045489237
99	0xbdb1b49b	-0.08677026
100	0xbde27fbf	-0.11059522
101	0xbde0c4eb	-0.10975059
102	0xbe2bf71a	-0.1679348
103	0xbe932af2	-0.28743702
104	0xbe45c18f	-0.19312118
105	0xbeb0d3c0	-0.34536552
106	0xbe346d23	-0.17619757
107	0xbe0853dd	-0.13313241
108	0xbe39f944	-0.18161494
109	0xbeab7bdf	-0.33492944
110	0xbe1c6fb1	-0.15276982
111	0xbdda24d9	-0.106515594
112	0xbe563128	-0.20917189
113	0xbdac990c	-0.08427629
114	0xbda250e8	-0.07925588
115	0xbd710583	-0.058843147
116	0x3cfeec8a	0.03111865
117	0xbc257a45	-0.010099952
118	0xbdd20b5b	-0.10256072
119	0xbe1ccea7	-0.15313207
120	0xbebc25c2	-0.36747557
121	0xbd799a37	-0.060938086
122	0xbe468f87	-0.19390689
123	0x3d34f476	0.04417845
124	0xbe53b967	-0.20676194
125	0x3cb15437	0.021646602
126	0xbdcb6da4	-0.09933022
127	0xbe89a088	-0.26880288

fc3.weight f4 [2, 128]
0	0xbd7c28cf	-0.061562356
1	0xbe44ee26	-0.19231471
2	0x3dcdcb72	0.1004857
3	0x3d22d0b4	0.039749816
4	0xbd03fd4f	-0.032223996
5	0x3c939221	0.018014016
6	0x3dd1c1ff	0.1024208
7	0xbd41d8be	-0.047325842
8	0x3d94a386	0.07257752
9	0x3cbc3d92	0.022978578
10	0x3ca838cc	0.020534895
11	0x3e23ceaa	0.15996805
12	0xbca0db73	-0.019635892
13	0x3c474fca	0.012165019
14	0x3c14f6af	0.009092017
15	0xbe3792cc	-0.17927092
16	0x3d3368a4	0.043800965
17	0xbccb5868	-0.024822429
18	0x3c75e831	0.015008972
19	0xbe2f773c	-0.17135328
20	0x3d6eb53a	0.0582783
21	0xbd2077e0	-0.03917682
22	0xbbf6f52e	-0.007536552
23	0xbe58aac1	-0.21158887
24	0x3d88e890	0.06684983
25	0xbe0413f6	-0.1289824
26	0x3d525416	0.05134972
27	0x3ebc9c30	0.36837912
28	0x3dbf35ce	0.09336434
29	0xbe9dad69	-0.30796364
30	0xbc678bf4	-0.0141324885
31	0x3d503529	0.050831947
32	0xbe4f4b36	-0.20243534
33	0xbdada61a	-0.08478947
34	0xbd287a07	-0.041132
35	0xbd878734	-0.06617585
36	0xbd5672c5	-0.052355547
37	0xbe583464	-0.21113735
38	0xba9f8ef4	-0.0012173341
39	0x3d1c0be6	0.038097285
40	0x3d46fb33	0.048579406
41	0x3d8e7e7b	0.06957718
42	0xbdc1725c	-0.094456404
43	0x3daf810f	0.08569538
44	0x3e87737d	0.26455298
45	0xbc2587e4	-0.0101032
46	0x3dd192db	0.102330886
47	0x3c56a299	0.01310029
48	0xbdb59b23	-0.088674806
49	0x3d6ae1e2	0.057344325
50	0x3eeeae31	0.46617272
51	0xbdd97cd0	-0.10619509
52	0xbe9497b8	-0.29022002
53	0xbdf8b547	-0.12143951
54	0xbce8f8df	-0.028438983
55	0x3c32d3ea	0.010914782
56	0xbe2b60de	-0.1673617
57	0xbe3348d9	-0.17508258
58	0x3e548e17	0.20757328
59	0x3cded0a2	0.027199093
60	0xbd727fd1	-0.059203926
61	0x3d93760d	0.07200251
62	0xbe202dbe	-0.1564245
63	0xbc9c47d5	-0.019077221
64	0x3dd03985	0.10167221
65	0xbdb31ed5	-0.08746115
66	0x3d665d3f	0.05624127
67	0x3dcdb2fd	0.10043905
68	0xbe2d61cb	-0.16931836
69	0xbe11b95b	-0.14230864
70	0xbbf8cbf4	-0.0075926725
71	0x3d7c8b81	0.06165648
72	0xbd776d99	-0.060407255
73	0xbecae31a	-0.3962639
74	0xbe100fab	-0.14068477
75	0xbd2bdeec	-0.04196064
76	0xbc7f0c36	-0.015566876
77	0x3dc52b67	0.09627419
78	0xbe295b3b	-0.16538708
79	0xbdc748d7	-0.0973069
80	0x3ccb8a8d	0.02484634
81	0xbe3a10c2	-0.18170455
82	0xbe815103	-0.2525712
83	0x3d8f964c	0.07011089
84	0x3e38ee93	0.18059759
85	0xbd8e664e	-0.06953107
86	0x3e1518ec	0.14560288
87	0xbcc4e3d6	-0.024034422
88	0x3d72f9ee	0.059320383
89	0xbb97d7c5	-0.004633876
90	0xbe16c313	-0.14722852
91	0xbe62122d	-0.22077246
92	0xbcbf48ec	-0.023350202
93	0xbd5c638f	-0.053805884
94	0xbd81aa0a	-0.063312605
95	0xbcbcc581	-0.023043396
96	0xbdb4b214	-0.08823028
97	0xbdfa10d2	-0.122102395
98	0x391438e0	0.00014135567
99	0xbddeb67a	-0.108746484
100	0x3c7a3e6c	0.015273672
101	0x3d84c7e9	0.06483442
102	0x3b982ae1	0.0046437834
103	0xbe5bc36d	-0.21461268
104	0xbd3a9c98	-0.045559496
105	0x3e12a01f	0.14318894
106	0x3e7b4be1	0.24540664
107	0x3ce9b443	0.028528338
108	0xbe485ded	-0.1956708
109	0x3e3fa001	0.1871338
110	0xbdf24166	-0.1182888
111	0xbc3e5026	-0.011615789
112	0x3e37c26e	0.17945263
113	0xbe0ec78a	-0.13943306
114	0xbd96009e	-0.073243365
115	0x3d0adcd0	0.03390199
116	0x3e6eaf92	0.23309162
117	0x3d87d252	0.06631912
118	0x3dcbcc09	0.09951026
119	0x3be908df	0.007111653
120	0x3e2e4b11	0.17020823
121	0xbe9fb4d3	-0.31192645
122	0x3e4261f7	0.18982683
123	0x3dc643f8	0.09680933
124	0xbdc58504	-0.09644511
125	0xbe155e20	-0.14586687
126	0xbe980552	-0.2969156
127	0x3d6be223	0.057588708
128	0xbdbdee84	-0.09274009
129	0xbd1e1b29	-0.03860012
130	0xbe207f06	-0.15673456
131	0x3ee5b2fd	0.4486312
132	0x3d5ccf94	0.0539089
133	0xbbb2a3c2	-0.0054516504
134	0x3d6e06ab	0.058111828
135	0xbe718cdf	-0.23588894
136	0xbd625f9c	-0.05526696
137	0xbdad8675	-0.08472911
138	0xbf182bbb	-0.5944173
139	0x3e258d36	0.16167149
140	0x3d40f7f5	0.04711147
141	0x3e793b7a	0.24339095
142	0xbdae7ffc	-0.08520505
143	0x3ca67170	0.020317763
144	0xbe2e4e3b	-0.1702203
145	0x3ec814f9	0.390785
146	0xbcb235bb	-0.021754136
147	0xbde0a65f	-0.10969233
148	0x3e874fb4	0.26427996
149	0x3db92f7a	0.090422586
150	0x3e8415cb	0.25797877
151	0xbe6bc879	-0.23025693
152	0xbdf69396	-0.120398685
153	0x3e81d194	0.25355208
154	0xbe0a7ad0	-0.13523412
155	0x3db976d5	0.090558685
156	0xbdc32afd	-0.09529684
157	0xbe7f6a12	-0.24942806
158	0x3e3c9ec5	0.18419941
159	0xbddaffa2	-0.10693289
160	0x3e7dbfb6	0.24780163
161	0xbdade524	-0.08490971
162	0x3ed442b0	0.4145713
163	0x3d9ea866	0.07746963
164	0x3c92e7da	0.017932821
165	0x3e99fa06	0.30073565
166	0xbc29997e	-0.010351537
167	0xbdd78b90	-0.10524666
168	0x3e11a62c	0.14223546
169	0xbe32366a	-0.1740357
170	0xbddce94f	-0.107866876
171	0x3e4da5ab	0.20082729
172	0x3ddb3d54	0.10705057
173	0x3c622a51	0.013804034
174	0xbed3d32d	-0.41372052
175	0x3e7f98e1	0.24960662
176	0x3e59e39d	0.21278234
177	0x3ddbbd28	0.10729438
178	0x3e3f3e0c	0.18676013
179	0x3e42329b	0.18964617
180	0xbeb248b8	-0.34821105
181	0x3d90a736	0.07063143
182	0x3dc877e9	0.09788496
183	0x3e9f9122	0.31165415
184	0xbba87f87	-0.0051421556
185	0xbdf633a3	-0.12021568
186	0x3eb453d4	0.35220206
187	0x3d3693f9	0.04457471
188	0x3d8ba848	0.068192065
189	0x3e15cb7d	0.14628406
190	0xbe2d6cdc	-0.16936058
191	0x3e80439a	0.25051576
192	0x3e3240a1	0.17407466
193	0x3e170d7e	0.1475124
194	0xbe47973d	-0.19491287
195	0x3e443053	0.19159059
196	0x3d4c588b	0.04988913
197	0x3dc08fe9	0.09402449
198	0xbe6f7e58	-0.2338804
199	0x3f0829b0	0.5318861
200	0x3d523f04	0.051329628
201	0x3cdd6faf	0.027030794
202	0x3eb6f222	0.35731608
203	0xbacde929	-0.0015709746
204	0xbe3547d4	-0.17703182
205	0x3d8b5143	0.06802609
206	0xbdb27fdf	-0.08715796
207	0xbdeb3a25	-0.114856996
208	0xbdc41573	-0.095744036
209	0x3d1d5806	0.038414024
210	0xbe5225ca	-0.20522228
211	0x3eace437	0.33767864
212	0x3d8c4c19	0.06850452
213	0x3d23bd9e	0.039975755
214	0xbebbaf6c	-0.36657274
215	0xbda3af96	-0.07992475
216	0x3e6e0dd3	0.23247461
217	0x3ebb9c0e	0.36642498
218	0xbdb30607	-0.08741384
219	0xbec71676	-0.38884324
220	0xbea46891	-0.32111028
221	0x3dfa6485	0.12226204
222	0x3e0aacae	0.13542435
223	0x3e6d0bbc	0.23149008
224	0x3e3cc458	0.18434274
225	0x3d7420ec	0.05960171
226	0xbc07eb2f	-0.008295818
227	0xbe5cbbc5	-0.21556003
228	0x3d87c8c9	0.066300936
229	0x3e151e65	0.14562376
230	0x3eb2c830	0.34918356
231	0x3e39813b	0.18115704
232	0x3d783326	0.060595654
233	0xbc89d239	-0.016823875
234	0x3ec9969e	0.39372724
235	0x3ea6b624	0.32560837
236	0xbd22ecd1	-0.039776627
237	0xbd1218ba	-0.035668112
238	0xbe49cdac	-0.19707364
239	0x3c371ca9	0.011176267
240	0xbe1315a5	-0.14363725
241	0xbd8d56a4	-0.06901291
242	0xbe026ed4	-0.1273759
243	0x3a8764c8	0.0010329718
244	0x3e666a05	0.2250138
245	0x3df25e2e	0.118343696
246	0xbe05c3dc	-0.13062996
247	0xbe55d3f9	-0.20881642
248	0x3ea12e24	0.31480515
249	0xbdd7c0d9	-0.1053483
250	0x3ead50f2	0.3385082
251	0xbd926235	-0.07147638
252	0x3d180b73	0.037120294
253	0x3e9cb1a6	0.30604285
254	0x3daf6fdb	0.085662566
255	0x3ecf4383	0.40481195

fc3.bias f4 [2]
0	0xbda9413d	-0.08264396
1	0xbe90412d	-0.28174725
