checkpoint_critic_0.pth (torch_old, 185386 bytes, 5 tensors)

fcs1.weight f4 [256, 48]
00000000: 9f8c 223d c84e 8abe 39df 51bd dea2 523e
00000010: 0e9c 4a3e babe a6bd ed02 8abd c9c7 713e
00000020: 400d b63d 69c2 e8bd 6caf 6ebd d8ee 323e
00000030: e2a5 ce3d 9f02 30be de46 453d aa32 0d3e
00000040: 60da 6c3e 32f2 13bd 5c46 dd3b 816f 9f3e
00000050: 241b 10be 4aa9 afbd e1c9 3e3d f21f 633e
00000060: d71f 4dbd adcd 563e ce31 033c 20da a13d
00000070: ff42 89be e3b4 14be 0876 e8bc 413b e73d
00000080: 2f0d f63d 427c eb3e aac4 26bc bfd7 ae3d
00000090: f575 19be 0b67 15be f160 ffbc 6d76 103e
000000a0: a9b3 4c3e 470d ef3e d195 c93b 443e 44be
000000b0: 7b90 c83d 5cf3 b1bd 96e6 553c c31d ebbd
000000c0: cf05 f9bc 7cf9 1ebe a84f 013c 68e1 653d
000000d0: ce7a f6be 1b31 aebc 1d9e c6bc ecbb 033e
000000e0: 0738 e23d d81f bd3d f63b 80bb 3e19 b73d
000000f0: bd58 2c3c da2a 0abc 946a 41bc 23ce db3d
00000100: 9384 2a3d 4420 ad3c 73a7 9a3c 30c5 9a3e
00000110: d568 4d3f 4b7c 323d 3b02 7139 e4c8 603e
00000120: 51cb 8ebc 66f0 90be 8797 0f3d a454 acbc
00000130: e2e1 cc3e 5091 0d3b 6691 3bbc bc36 01bd
00000140: 858c a93d c367 87be 01ba cabb f698 823c
00000150: 3683 90bd 8d44 083d 8b5a 073d e974 c5bc
00000160: 0d1f aa3d f931 1ebe 2f6c 023d 0dcb b33c
00000170: d6d5 4bbf ba51 da3d 1332 363c 0f37 3d3d
00000180: 76eb 503e 7648 533f 907c 843d a7ad d43d
00000190: 9d7f a23b 9a9b e3be 9236 4f3d 4418 4b3e
000001a0: 1546 b33e 43b8 6d3f 7288 0ebd ab93 323e
000001b0: 94cd 93bb 92b9 dcbe 88ac 833d 40b8 1c3e
000001c0: 1682 ab3e c17d 3a3f 9304 acbc df8a 8bbe
000001d0: 6427 2abe 5335 c0be e0ec 8d3d ebe1 22be
000001e0: 9edf fd3e 4b46 c3be f922 0abd 143b 6c3e
000001f0: 4f05 3335 4d4d dcbe a97b 413d 2fc6 1c3e
00000200: 139b 923e 0c20 cebe b129 373d 3666 533e
00000210: c11c f13c 14f3 e6be f49c fc3c 27f4 5b3e
00000220: 01b6 3c3e a0ce e8be 508f 313c 31d9 783e
00000230: 8d32 3f3e 425d adbe 7ad3 013d 808f 9d3e
00000240: 387c fd3e 9c85 1fbe aefa 4cbc 633f 063c
00000250: 251b 833d 0243 9dbd b035 4bbd 6e9e 023d
00000260: 1b10 df3e 0bbf f7bd f339 80bd a471 85bd
00000270: 9af5 d93d 6fa2 24be 389e 5fbb 7687 36be
00000280: 97b7 9e3e 9647 edbd e57d 71bd 33d0 29be
00000290: d05f 613e 58dd 83bd d5d6 f5bd 3f8a f6bd
000002a0: 5d8a 903e 5f4f 823b 606d c4bd f80b 09bf
000002b0: b934 c6bd 72e2 2bbe 4cc1 77bd 51f2 f8be
000002c0: 3412 5b3e 7e58 04be 7b01 2abc a6af c2bd
000002d0: d2b7 d6bd e744 01be 58c0 efbd 5fc9 0cbe
000002e0: 7cc4 863e 7109 56be 285a edbc f371 a8b9
000002f0: 287c 43be 2f67 aebd 7045 2bbd c81f 92bc
00000300: 6b3f 6b3e e7b6 053f 03b3 803c 6bd4 90bd
00000310: 0018 423e fa5e 4bbe 43df 6bbd b9dd c3bd
00000320: ff14 783e 4861 fc3e 80d5 93bd abe0 4abe
00000330: ab64 a43d 13f9 01be 3b35 73bd bca2 dfbd
00000340: ac09 9b3e 48c2 fd3e 7a68 083b dd26 1cbe
00000350: aeef f8bd e318 98be ac68 3d3d e84d 15be
00000360: 9ad2 343e 6b0f ba3e 1a42 86bd 885d 41be
00000370: 9457 57be 4750 09be c391 7cbd 6c8d 32be
00000380: 8885 333e 5ec9 ad3e 80ba dabc 0b58 a2be
00000390: 360c 9b3b 3301 59be 0d81 873d 6902 60be
000003a0: dd94 273e f91f bc3e b2cf 12be 15b0 13be
000003b0: 131f 133e 4f2a babe 8126 abbd 3b35 4fbe
000003c0: 179d e73e 42f1 1ebe 48e6 69bc d520 8b3d
000003d0: 8fe7 c7bd 52eb fabe c6e1 bfba 6869 f23d
000003e0: b7de 093f 9f25 56be 2ab7 933c 1228 8a3d
000003f0: 3466 76be 349d 39bf 5211 093d 7576 ca3d
0.039684888 -0.2701323 -0.051238272 0.20569941 0.19786093 -0.08141847 -0.06738839 0.23611368
0.08889246 -0.11365206 -0.058272764 0.17473924 0.100902334 -0.171885 0.048163287 0.13788858
0.23130178 -0.036119647 0.0067527723 0.31139758 -0.14072853 -0.08577211 0.046579245 0.22180155
-0.050079193 0.20976897 0.00800748 0.07902932 -0.26808926 -0.14522128 -0.028376594 0.11290599
0.12014233 0.4599324 -0.010178724 0.08537244 -0.14986403 -0.14590089 -0.031174155 0.14107676
0.1999041 0.46689817 0.0061518927 -0.19164377 0.097931825 -0.08688995 0.013055464 -0.11480286
-0.030398278 -0.15524858 0.007892527 0.056123167 -0.48140568 -0.02126365 -0.024245316 0.12864655
0.110458426 0.09234589 -0.003913398 0.089403614 0.010519204 -0.008433068 -0.011805195 0.10732677
0.04163034 0.02113355 0.018878674 0.30228567 0.80238086 0.043575566 0.00022984382 0.21951634
-0.017430933 -0.2830841 0.035056617 -0.021036454 0.40016085 0.0021601506 -0.01144824 -0.03154634
0.08278755 -0.2644635 -0.006186724 0.015942078 -0.070562765 0.0332685 0.033045333 -0.024103599
0.08306704 -0.1544875 0.031841453 0.021947408 -0.7962316 0.10660119 0.011120337 0.046195086
0.20402321 0.8253244 0.06469071 0.10384684 0.0049590603 -0.44454652 0.05058915 0.19833475
0.35014406 0.92859286 -0.034798093 0.17439143 -0.004510591 -0.4311033 0.06429392 0.15304661
0.33497685 0.72848135 -0.020998275 -0.27254388 -0.16616589 -0.37540683 0.06929946 -0.15906493
0.4958467 -0.38139567 -0.03372476 0.23069412 6.669042e-07 -0.43027726 0.047237072 0.15309976
0.28633937 -0.40258825 0.044717494 0.20644459 0.029432656 -0.4510733 0.03083656 0.21479855
0.18428804 -0.45470142 0.010837391 0.24301602 0.18671627 -0.33860213 0.03169582 0.30773544
0.49508834 -0.15578312 -0.012510939 0.0081938235 0.06401662 -0.07678796 -0.049611747 0.03188937
0.43566975 -0.120969854 -0.06261053 -0.06515816 0.10642548 -0.16077588 -0.0034121405 -0.17825112
0.30999443 -0.115859196 -0.058957953 -0.16583328 0.22009206 -0.06438702 -0.120038666 -0.12038087
0.28230563 0.003976747 -0.09591174 -0.5353389 -0.09678025 -0.16785601 -0.060487077 -0.48622373
0.21393663 -0.12924382 -0.0103763295 -0.095061585 -0.1048428 -0.1262394 -0.117066085 -0.13748692
0.2632178 -0.20902039 -0.028973654 -0.00032128356 -0.1909033 -0.085157745 -0.041814268 -0.01783742
0.22973411 0.5223221 0.01571036 -0.070717655 0.18954468 -0.1986045 -0.057585966 -0.095637746
0.2422676 0.4929297 -0.07218456 -0.19812267 0.080270134 -0.1269267 -0.059376936 -0.10919711
0.30280817 0.49562287 0.0020814226 -0.152492 -0.1215509 -0.29706487 0.0462424 -0.145805
0.17658463 0.36339888 -0.065555766 -0.18883336 -0.21029502 -0.1340953 -0.061662447 -0.1743676
0.17531407 0.33942693 -0.026700258 -0.31707796 0.0047316803 -0.21191864 0.06616411 -0.2187592
0.1636538 0.36743143 -0.14337042 -0.14422639 0.14367323 -0.36360404 -0.083569534 -0.2023515
0.45237038 -0.1552172 -0.014276095 0.067933716 -0.09760963 -0.4900766 -0.0014639429 0.11836511
0.5385546 -0.20912789 0.018031675 0.06745924 -0.24062425 -0.725055 0.033463784 0.09885875

fcs1.bias f4 [256]
00000000: 4088 ccbe 8fb4 903d 731f 53be 58d0 bfbe
00000010: e30b cfbe 54e1 2ebe fd17 5cbe 4edd 8bbe
00000020: 127b 79be b859 c5be 8bd2 37be 422a 3ebe
00000030: cbcd 1dbe 780e 653e 2bbe bebe cb7f 3fbe
00000040: 2516 e8be 45a3 5abe 4ba7 c6be e754 763e
00000050: 62fe f0bd e4c5 d9be 3bdf 32be 6fc3 8cbe
00000060: df2c 4f3d 8ed3 a6be 1040 dd3e d0ae 80be
00000070: 088d a3be 8eff 96be 3ee6 86be 4c9e cdbd
00000080: b054 79bc d11d dcbd 9fea 84be ae04 d0be
00000090: 70cf 03bf afcb 93be 0e83 c33d 61aa 4abd
000000a0: 0b7a 5b3d 25bd 54be 45de 45be c988 05be
000000b0: fa55 7bbe ecc6 42bd 38e7 6cbe 2702 1abe
000000c0: aec4 1a3e e29f 073e 0678 03bf 7f83 ec3d
000000d0: bd8e 99be 2c95 7abe 2981 20be 2b43 83bd
000000e0: bc43 3bbe 22e5 35be 00d4 09be 3918 3b3e
000000f0: 3c49 77be 5c9b 83bd 88fb a5be 8ce5 f03d
00000100: dcac 54be 8570 0eb7 0393 ebbe 50c1 c9be
00000110: e153 4ebe b20b 5bbd 289b a33e 75b3 b3bd
00000120: dc55 28be 157d cdbd 9b55 a0be db9c 9ebd
00000130: c033 1dbe bf81 82be f53b d7be bc14 c8be
00000140: c93b 22be 5137 ddbd 42fe 62be fa36 04be
00000150: 3d94 79be 3fc4 7ebe cc1a 8cbe b637 adbe
00000160: 45a0 7bbe f04a 19be 58f3 d2be 8ff3 97be
00000170: 8e6b c43d a9e3 74be 381c bebd 0d7f 7dbe
00000180: 72c9 af3d d237 d23d 3d03 32be 3e2b 34be
00000190: dff9 87be 3f34 94be bdd3 d7bd e748 5f3e
000001a0: b735 8abe 24fa a3be 9a3f 84bd a92a a8be
000001b0: 680b 4ebe 244b bdbe 8f6f fabe 5bb9 c03d
000001c0: 1a59 b3be fa5b 22be 9f63 64be fca6 58be
000001d0: ec39 7cbe 70c7 47be f621 93be 3f0c 97be
000001e0: 76d3 72be 23d0 92be af9e b9be 91a1 26be
000001f0: 330a a4be f95c 753d 1484 bdbe 1c39 1d3e
00000200: 5a7c 56bd 5045 acbe cc4d cfbe 8bac 13bf
00000210: af73 9cbe 3351 8fbe e3ce 65be 4976 87be
00000220: 0796 b5be db40 5ebe 7b0a 8ebe 5962 d0be
00000230: 1437 3ebe eb1e b4be 78c0 99be 9dbf 0f3d
00000240: 5ebc 02be 47df 183c 42ff 3bbe 5b01 4bbd
00000250: fbde 303d ba53 42be 9f70 8dbe bbac 68be
00000260: 8930 ae3d 5dce 44bb dc20 85be 7fc5 dcbe
00000270: 906e a2be 0b69 febd 19a6 09be 22a1 49be
00000280: 6729 5dbe 90de e5bc 6733 9ebe 9d0c 90be
00000290: 05ce d7be 69f5 5abe c2d1 babe 1fca f8bd
000002a0: ebc4 cbbe 6887 dbbc 6de2 91be 5d04 81be
000002b0: 03ab acbe 50e2 bfbd 8d84 f0bd 90ae 94be
000002c0: ff9f cfbe b875 8abe 3c30 1fbe 1d7a 8cbe
000002d0: af4e c6be aadb 8fbe 4faa 44be 0c42 a6be
000002e0: ed3f c4be 9eb7 c93d 7969 73be 97de 11be
000002f0: d7e5 5ebe e7cc a2be 0205 7bbe 07cb 51be
00000300: 0e47 17be 460f 463d 53ed a33c 846d 5fbe
00000310: f805 9abe 435a 0dbf 9156 5ebe de4e 99be
00000320: edbc 7abe 8a1f 78be 1a6e 493d 1907 f2be
00000330: a4d0 943d 4ccb aebd 9b68 8cbe 893e 88be
00000340: d47a 57be d931 0dbe b157 babe 42b4 d9be
00000350: d2a5 65bc 2902 64be ea0a 0abc 1abb 63be
00000360: b1e7 d1be 70e3 a0bd 8aba 01bf da89 9cbe
00000370: 30e7 f7bd ddcc b0be a4bc 8cbe b273 dcbd
00000380: 40e5 e53d 5e01 5ebe 3524 b4be f390 0cbe
00000390: e7fd e83c 7b42 a8be 4e0f 5abe a7a2 e53d
000003a0: 3b83 35be c9a9 7fbe def9 13bf 86f9 4d3d
000003b0: d4ef 9abe 535a 1cbe 4e76 91bd eb57 cdbe
000003c0: afc5 adbd 35e7 00bf 2552 39be 1d60 90be
000003d0: 9b96 b6be 8dfb 61be 4f4a 1c3e e370 fdbe
000003e0: 96ea 923e b132 b1bc 096c 79be 742b 92be
000003f0: baa8 abbe 52c6 26be 6e79 cb3c b50e 71be
-0.399477 0.07065689 -0.20617466 -0.3746364 -0.40438756 -0.17078143 -0.21493526 -0.2731728
-0.24363354 -0.38545012 -0.1795141 -0.18570808 -0.15410535 0.223688 -0.37254462 -0.18701093
-0.45329395 -0.21351345 -0.3879951 0.24055825 -0.1176727 -0.4253379 -0.17467968 -0.27492854
0.0505799 -0.32583278 0.43212938 -0.2513337 -0.31943536 -0.29491848 -0.26347536 -0.10039958
-0.015217945 -0.107478745 -0.25960252 -0.4062857 -0.514884 -0.28866336 0.09546481 -0.049478892
0.053583186 -0.20775278 -0.1932307 -0.1304046 -0.24544516 -0.047552988 -0.23135078 -0.15039884
0.1511409 0.13244584 -0.51355016 0.115485184 -0.29991713 -0.24470967 -0.1567427 -0.06409296
-0.18287557 -0.17763188 -0.13459778 0.18270959 -0.2414903 -0.06426117 -0.32418466 0.117625326
-0.20769066 -8.490058e-06 -0.460106 -0.39405298 -0.20149185 -0.05347795 0.31954312 -0.08774463
-0.16439003 -0.10033623 -0.31315312 -0.077447616 -0.15351772 -0.25489613 -0.4203793 -0.3907832
-0.15843119 -0.108015664 -0.22167304 -0.12911597 -0.24372955 -0.2487955 -0.27364194 -0.33831567
-0.24572857 -0.14969993 -0.41201282 -0.29678008 0.09590827 -0.2391497 -0.09282726 -0.24755497
0.085833445 0.10264553 -0.17384048 -0.1759462 -0.26557824 -0.2894611 -0.10538433 0.21805154
-0.26994106 -0.3202678 -0.064574435 -0.32845047 -0.20121539 -0.3697139 -0.48913237 0.09410354
-0.35028917 -0.15855399 -0.22303627 -0.2115745 -0.2463147 -0.19509673 -0.28736848 -0.2950153
-0.23713478 -0.2867442 -0.36253878 -0.1627257 -0.3203903 0.05990312 -0.3701483 0.15353817
-0.052364685 -0.3364663 -0.40489042 -0.57685155 -0.3055701 -0.27991638 -0.22442202 -0.26457432
-0.35466024 -0.21704428 -0.2774237 -0.40700033 -0.18575698 -0.3517984 -0.30029655 0.035094846
-0.12767169 0.009330577 -0.18359092 -0.04956184 0.0431814 -0.18977252 -0.27624986 -0.22722141
0.08505351 -0.0030030229 -0.26001632 -0.43119428 -0.31724977 -0.12422379 -0.13442267 -0.19690374
-0.21597825 -0.028060228 -0.30898592 -0.28134623 -0.42149368 -0.21382679 -0.36488158 -0.121479265
-0.39798674 -0.026797965 -0.28493062 -0.2519864 -0.33724222 -0.093693376 -0.11744032 -0.2903943
-0.40551755 -0.27042937 -0.15545744 -0.27436915 -0.38731906 -0.28097278 -0.19205593 -0.32472265
-0.38330022 0.09849475 -0.23770703 -0.14245068 -0.21767364 -0.31796953 -0.24513629 -0.20487605
-0.14773199 0.04835441 0.020010626 -0.2181912 -0.3008268 -0.55215853 -0.2171271 -0.29942983
-0.24486132 -0.24230781 0.049177267 -0.4727104 0.072663575 -0.085348696 -0.27423558 -0.2661021
-0.21042949 -0.13788547 -0.36395028 -0.42520338 -0.014016585 -0.22266449 -0.008425454 -0.22239342
-0.4099708 -0.0785588 -0.5067526 -0.30573922 -0.121046424 -0.34531298 -0.2748767 -0.10764255
0.112253666 -0.21680209 -0.35183874 -0.13727169 0.028441383 -0.3286322 -0.21294901 0.11212664
-0.17725842 -0.24967112 -0.5780314 0.050286792 -0.302611 -0.15268831 -0.07102643 -0.4010614
-0.08484971 -0.50352794 -0.18097742 -0.2819833 -0.35661778 -0.22068615 0.15262721 -0.49500188
0.286946 -0.021630617 -0.24357618 -0.28548777 -0.33527166 -0.1628659 0.024838176 -0.23540767

fc2.weight f4 [128, 260]
00000000: a36a ce3d 9ed8 d7bd a3ab 2ebe 3dba eb3c
00000010: fd0b 1bbe 3162 d03c 795f 83bd b852 45bd
00000020: 315e de3b 2f0a 0bbe 4251 3cbc 1b72 e2bc
00000030: ed7a da3c 3041 da3c 8d1c 513c d544 39be
00000040: dac3 27bd 3b6b 55bd 6478 2dbe abaf c9bd
00000050: 743d 96bd 2d2d 75bd af91 663d 7098 30be
00000060: 933b d8bd 0f95 8abe 87c6 8b3c 70e8 bebd
00000070: 6f57 85bd 0f85 a6bc 6ea7 c6bc dfa9 fbbd
00000080: 9f42 8f3d eab3 e9bd c93e 3f3e 4946 74bd
00000090: c34b 52bd 9818 30be e1c5 bd3d d2eb c83d
000000a0: 83f6 eabd f104 87bd 6543 803b 6a72 9bbd
000000b0: 79fc 87bc a137 8f3d 65ee 88bb 7611 f93d
000000c0: 421c 07be 4176 10be 2ae8 c43d 2d6d b03d
000000d0: 3c2d 26bd 1eed 27bd f20b 663d 012d ee3d
000000e0: df5f 80bd 68f4 68bd 0f71 abbd f4d3 0abe
000000f0: 11e3 de3d 4079 8cbc 9bff 83bd 85a8 823c
00000100: c831 483c 2044 6dbe 0403 6abd cedb 70bc
00000110: fc77 a63d f666 1cbe ddc4 803d 7d6e 293e
00000120: 1a25 92bc 3fd9 88bd 8645 943d e483 2e3e
00000130: ea82 63bc c6dd 79bd 00d4 16bd 245e 263d
00000140: 15d6 ac3d 3289 83be 9eac 05be ac25 d4bd
00000150: f196 12be cd58 a1bd 245e b6bc 1b1c 3d3d
00000160: d1fe c7bd 1d7c 10be 7366 5f3d dd14 d8bc
00000170: 0b18 253d 446c 833d f59a 90bd d47c 7dbc
00000180: 5e51 a43c 4466 813c 7ff5 563c 2995 3abd
00000190: caa7 bcbd 54e0 203c 5929 44be da39 42bd
000001a0: 1d63 e1bd b11a 69be 124a a33c ccc2 6bbb
000001b0: 5577 7ebd e580 d5bd ff6c ecbd ce47 d3bc
000001c0: a320 aabd bf22 c9bd e002 b3bc 61df 62bd
000001d0: 0087 083e e65a 473a 9d5b 95bd b2ad eebd
000001e0: 7cce 45bd 1929 acbd 5b27 efbd c24f 1abd
000001f0: 39bc 9dbd d49c 243d 6388 4d3b f2bb 4c3d
00000200: 23ba c3bc 8b3e 913d e65a 313e 06b5 6abe
00000210: 64d1 713d aac4 a63c e414 a6bd 0c92 03be
00000220: 3f83 5abd 4ba6 31be 5904 96bd 400e 51be
00000230: 8ac3 983d c470 3fbc 9a48 aabc ce31 093d
00000240: e23e 8fbd c82d 7d3d 8873 2cbd e64f 80be
00000250: b54e d43c 9204 873d 3c3f 6c3b 06d5 ca3d
00000260: 6876 013c 6383 c53c 14e8 61bd abcf 10bd
00000270: f2c2 0bbc d8ac bb3d 9fbd 5bbe d2f4 e3be
00000280: 80de 03be 1566 4f3d c97d b63c ecff ebbc
00000290: 7e2c 38bd cdd3 d8bd c0da b5bc 3ff1 533d
000002a0: cf48 333c b041 d33c 5326 8bbd 2402 5a3c
000002b0: e4b7 b8bd 79aa b73a 91d8 0a3e 91eb 93bd
000002c0: bfc9 7b3d 129d ef3d c447 ebbd 9de2 fc3c
000002d0: 5ff2 673d 7adf ce3d 25a6 1d3c 9779 93bd
000002e0: 7a63 4d3d a6b8 42be a0fb 283c 1cb6 3abb
000002f0: 7504 fe3c d549 c73b ddd6 81bc 9eb6 1ebd
00000300: de05 1bbe 8929 803d 8461 76bf 1ced 81be
00000310: 7420 24bd 5d8c 7fbd a645 8a3d c00f 563d
00000320: 8917 1bbc fadd f23c 91a2 9abd e02b 9f3c
00000330: b9e5 75bd a05f b43c c661 bcbd f1cd 003e
00000340: 430e 763d ee95 b93b 688c 643d 0f17 3b3d
00000350: 9680 d03d e3b0 1d3e 9047 093e c9bd e1bd
00000360: 222d 433c 1de4 ecbb b31b f6bd 8968 30bd
00000370: fc0d f5bd 6826 213b c643 a7bd 989e bebd
00000380: 6db8 02be 56ac 74bd 81a2 f6bd d2a1 85be
00000390: 3781 d1bd e965 a5bc d3fd 303d 8797 4bbe
000003a0: 6319 8ebd 5e08 263e 09e2 123d b182 4c3d
000003b0: 5f69 a4bd 9f22 94be 1e39 3cbd d911 2f3d
000003c0: 56e1 91be 8fd1 52bd e318 aebd 92c1 d5bb
000003d0: 740c 40bd ebb5 913c d1ca 5fbe 9867 eebd
000003e0: ed4e 6dbe bd5a 24be 0d81 eebc c4d1 d43c
000003f0: 1b36 a93c 9866 abbd 1eb5 d13c 1370 e03d
0.10078933 -0.10539363 -0.17057662 0.028775329 -0.15141292 0.025437446 -0.06414694 -0.04817459
0.006786131 -0.13578103 -0.011493983 -0.0276423 0.026669944 0.026642412 0.012763155 -0.18092664
-0.040958263 -0.052104216 -0.16940457 -0.09847959 -0.0733594 -0.059857536 0.05629128 -0.1724565
-0.10558238 -0.27066848 0.017062439 -0.09321678 -0.06510817 -0.02032712 -0.024249759 -0.1228826
0.06995129 -0.11411269 0.18676294 -0.05963734 -0.051341783 -0.17196882 0.09266258 0.09810604
-0.114728 -0.065927394 0.003914284 -0.07590182 -0.01659988 0.06993032 -0.0041788095 0.121615335
-0.13194373 -0.1410761 0.09614594 0.08614574 -0.040570483 -0.040997617 0.056163736 0.116296776
-0.06268286 -0.05687371 -0.083711736 -0.13557416 0.10883153 -0.01714766 -0.06445237 0.015949497
0.0122189 -0.23170519 -0.057131782 -0.014700843 0.08128354 -0.15273651 0.06287549 0.16546054
-0.017839957 -0.066820614 0.07239823 0.170425 -0.013886193 -0.061002515 -0.036823273 0.040617123
0.084392704 -0.2569061 -0.1305413 -0.10358748 -0.14315392 -0.078782655 -0.022261687 0.04616938
-0.09765399 -0.14109845 0.054541063 -0.026377136 0.040306132 0.064171344 -0.07060806 -0.015471656
0.02005833 0.015795834 0.013120054 -0.045552406 -0.09211691 0.009819109 -0.19156398 -0.047418453
-0.110052325 -0.22764088 0.01993278 -0.0035974262 -0.062125523 -0.10424975 -0.11544227 -0.025791075
-0.08307006 -0.098210804 -0.021851957 -0.055388812 0.13332748 0.00076047925 -0.072928645 -0.116542235
-0.048292622 -0.08406276 -0.11677428 -0.03767372 -0.07701916 0.040188625 0.003136181 0.049983926
-0.023892468 0.07092007 0.17319831 -0.22920617 0.05903758 0.020357449 -0.08109453 -0.12848681
-0.053347822 -0.17348592 -0.07325048 -0.20415592 0.07459171 -0.0116846 -0.020786572 0.033494763
-0.06994416 0.06181124 -0.042102367 -0.25060958 0.025916437 0.065926686 0.0036048433 0.09903912
0.007901765 0.024110502 -0.055152968 -0.035354298 -0.008530365 0.09163827 -0.21459053 -0.4452272
-0.12877846 0.050634462 0.022276776 -0.028808556 -0.044964306 -0.10587273 -0.022199035 0.051743742
0.010942652 0.025788158 -0.06794419 0.013306174 -0.09019449 0.0014012597 0.13559176 -0.07222665
0.061471697 0.11699881 -0.114882976 0.030869776 0.056627627 0.101012185 0.0096221315 -0.07200926
0.050143696 -0.1901575 0.010313898 -0.0028489893 0.031007985 0.0060817995 -0.015849525 -0.038748376
-0.15138957 0.06257922 -0.9624255 -0.25376213 -0.040070012 -0.06238972 0.06751566 0.052261114
-0.00946606 0.029646862 -0.07550538 0.0194301 -0.060033534 0.022018254 -0.09198336 0.1257856
0.060072195 0.005663625 0.055797964 0.045676287 0.10180776 0.15399508 0.13406205 -0.11022527
0.011912616 -0.0072293417 -0.12017002 -0.043068442 -0.11965558 0.0024589542 -0.08167224 -0.09307593
-0.12765665 -0.059734665 -0.12042714 -0.26100022 -0.10229724 -0.020190196 0.043210816 -0.19882022
-0.06938436 0.1621413 0.035860095 0.049929325 -0.080279104 -0.28932664 -0.04595291 0.04274163
-0.2849223 -0.051469382 -0.085008405 -0.0065233195 -0.046886876 0.01778694 -0.21854712 -0.11640853
-0.23174639 -0.16050239 -0.02911427 0.02597893 0.020655682 -0.083691776 0.025599059 0.109588765

fc2.bias f4 [128]
00000000: e93d bd3b 17fc 16bb 3deb 6abd 1880 72bc
00000010: fece fcbd ae94 f8bc f9de ddbd f15a 98bc
00000020: c0dc 27bd 0e1c f7bd 16a9 dcbd 129a 62be
00000030: c930 07be 419c ccbd 1abe 09be 7813 08be
00000040: 58dd 44bc 00ba 4cbd 07f2 89bc 2fb4 863b
00000050: 48d4 73be ded5 88bd 1a5a c5bd 5bb1 28bd
00000060: 1eee 83bd ccfb 03be ca14 0b3f 2b5f 01be
00000070: 0dba 20be e60a c5bd ff09 a0bd d57c c9bd
00000080: 4ab5 5ebd 2fd5 6abc cd6f c4bd f6c1 393d
00000090: 776f 81bd 193a 19be 0dd4 903e 8520 d0bd
000000a0: b66d 06be 0f92 89bd 52e2 48bd 8917 62bd
000000b0: b7b6 89bd 3861 a0bd f875 f7bd 3e7e 55bd
000000c0: 01a6 ccbd b55c cfbd 55c8 9e3d 6bd7 a1bd
000000d0: e568 2a3e 18a0 5fbe 0066 19bd 5ab9 dbbd
000000e0: fb89 edbc e9f3 1cbe f9b3 21bd 4581 c4bd
000000f0: 4e54 24bd 6c20 20be 56c8 d0bd 93ec 08bc
00000100: baf6 e9bd d565 55bd 2750 d8bd 8b52 c9bd
00000110: d78b 0abe 61ea 9dbd f478 a8bd d19e ffbd
00000120: c49e 5abd ccc1 c4bd 57cc 38bd acea 95bd
00000130: f8c3 f3bd 8b5c 7ebd 7ce0 2bbe 6f90 28bd
00000140: cf63 f4bd c47a 49bd 21eb 96bd 797c 4fbd
00000150: dfd4 4ebc e261 e5bd 5174 61bd 1bea 73bd
00000160: c05e 1dbe f6a8 e8bd 14d3 50bd b716 a03d
00000170: a415 05be b68e ebbd a472 44be 630e 9cbd
00000180: 48e3 66bd 9a07 93bb 8b92 88be fdba efbc
00000190: 9216 2ebe 7eff 1cbd aedf 01be a41f 18be
000001a0: 31a4 f3bd b66b 333e 5a21 0cbe 4160 9fbd
000001b0: 9fa7 b9bd 0b90 b8bd 742c 6abd 6ee1 c63d
000001c0: c49c b1bd ed52 cebd 8c2b c8bd ad4a acbd
000001d0: e435 f13d b931 0c3e d4da 88bd 3313 fabc
000001e0: 9adc bcbc e5e1 00be 22c5 76bd 14fb d8bc
000001f0: 997d c0bd ee48 76be fcc9 1fbe f50b d8bd
0.0057752025 -0.002303844 -0.057353247 -0.014801048 -0.12344168 -0.030344333 -0.10833544 -0.018598052
-0.040982008 -0.12065898 -0.10774438 -0.22129086 -0.13202204 -0.099907406 -0.13451424 -0.13288677
-0.012015663 -0.04998207 -0.01683904 0.004110835 -0.23811448 -0.06681417 -0.09636326 -0.041184764
-0.064419016 -0.12889022 0.54328597 -0.1263396 -0.15695973 -0.09621219 -0.078144066 -0.09838263
-0.05437211 -0.0143330535 -0.09591637 0.04535099 -0.06320088 -0.14963569 0.28286782 -0.101624526
-0.13127789 -0.067173116 -0.04904396 -0.055198226 -0.06724303 -0.07831043 -0.12083048 -0.052122347
-0.099926 -0.10125104 0.07753054 -0.07902416 0.16641577 -0.21838415 -0.03745079 -0.107287124
-0.028996458 -0.1532742 -0.039478276 -0.09594969 -0.04011946 -0.15637368 -0.10194461 -0.008357185
-0.114240125 -0.052099068 -0.10562163 -0.09830197 -0.13529907 -0.0771072 -0.08226195 -0.12481464
-0.053374067 -0.09607276 -0.04511675 -0.07320151 -0.119026124 -0.062099975 -0.16784853 -0.041153368
-0.119330995 -0.049189344 -0.07369066 -0.050655816 -0.012623995 -0.1120031 -0.05504257 -0.059549432
-0.15368176 -0.11360352 -0.05098255 0.078168325 -0.12996536 -0.11501829 -0.19184357 -0.076199315
-0.056369096 -0.00448699 -0.26674303 -0.029263968 -0.17000797 -0.038329594 -0.12682983 -0.1485582
-0.118965514 0.17521557 -0.13684598 -0.07782031 -0.09065174 -0.09011849 -0.0571713 0.09710966
-0.08672479 -0.100744106 -0.09773931 -0.08412681 0.11777857 0.13690843 -0.06682363 -0.030526733
-0.02305441 -0.12586172 -0.060246594 -0.02648691 -0.09398956 -0.24051258 -0.15604395 -0.105491556

fc3.weight f4 [1, 128]
00000000: d612 eabb 40ac 1a3c f6e1 dabc a37f 383c
00000010: 24ac 9dbc dcfb eebb 774b d23c 7f4e 573c
00000020: fd21 52bd 2010 f73c a088 f3bb efd0 d0bc
00000030: bf19 5c3c 1572 803b c790 7e3c b544 c4bc
00000040: bb63 8a3c ffe9 0d3d d044 c6bc 2a89 40bb
00000050: 9904 3abc a08e 233b 8389 98bc c310 ff3c
00000060: 0de7 643c 8df3 cdbc 96b6 9b3c e8df 29bc
00000070: 103c 9b3c 757f 4ebc cf49 26bc 1e3c c0bb
00000080: 1a91 e0bb 7815 b2bc 6df3 27bc 69dd abbc
00000090: 8d94 923b 2c39 67bc 218f bc3b 847d 1a3c
000000a0: f598 f63b 37f4 263c 0b2c fabb 466a 143c
000000b0: e08c 0f3c 840f cdbb c9bf 98bc 0b18 043b
000000c0: b2d1 d93c e0ac 8ebb d080 5ebc 6268 d33b
000000d0: f9e9 a13c 4d40 2cbc 0fac fabc 0df3 443c
000000e0: 12fe 3ebc 12dd 6a3b 8b2b bd3c 89c7 d2bb
000000f0: d307 c1bc 6c83 313b d320 8439 f6c1 893b
00000100: 4f1b 40bc 2bdc b6bb 31d2 9bbb 1c76 c43a
00000110: 05eb 07bd 2d9d 103c fc4b 4b3a 84e1 26bc
00000120: 23db f53c 63d3 01bc 67e0 1bbc 064a 89bb
00000130: 1b7b 88bc add1 a3bc cef1 bebb 62d8 dfbc
00000140: dd4e 733c 7911 a1bc dd69 1e3b 8344 943b
00000150: 93d2 4b3b 2dcf d33b 4b16 c7bb e250 9fbc
00000160: 9be6 24bc cb5e 69bc 6dfa 0b3c eeda 4ebc
00000170: b781 083d ef95 523c 92e9 ffbb 0dcb 0cbc
00000180: c6e4 263c 5e1c 03bc b820 81bc d32c e7bb
00000190: 544f 9ebc 972c 5fba ec9a b9bc c567 acbc
000001a0: eaa3 a7bc 3dd6 19bc ade1 c3ba b57a ef3b
000001b0: c965 53bc 8053 8dbc 8a77 6dbb feb3 253c
000001c0: de1c 353c 6f0e a13c 705f f13a 70cd 073c
000001d0: e4e8 e1bb 9d7c 683c 66c5 23bc 5389 083c
000001e0: 2602 e9bc f289 003c 651a 853c eeba ac3c
000001f0: 418c febb e197 1dbc d9f9 fabc badf 583c
-0.0071433587 0.009440482 -0.026719075 0.0112609 -0.019247122 -0.0072932076 0.02567075 0.0131412735
-0.051301945 0.030159056 -0.0074320585 -0.025490252 0.013433873 0.0039198496 0.015537447 -0.023958543
0.016893258 0.034646984 -0.024202734 -0.002937863 -0.011353635 0.0024956837 -0.018620258 0.031135922
0.013971102 -0.025140548 0.019007962 -0.010368325 0.018949538 -0.01260363 -0.010149433 -0.0058665415
-0.006853235 -0.021738753 -0.010250908 -0.0209796 0.004473275 -0.014112752 0.005754367 0.009429339
0.007525558 0.010190061 -0.007634645 0.009058541 0.008761615 -0.006257953 -0.018646138 0.0020155932
0.026589248 -0.0043541044 -0.013580516 0.0064516524 0.019764887 -0.010513377 -0.030599622 0.012020838
-0.011657255 0.0035837335 0.023092052 -0.006432478 -0.023563301 0.002708639 0.00025201458 0.00420403
-0.011725261 -0.0055804453 -0.0047552814 0.0014988813 -0.033183116 0.008826536 0.0007755158 -0.010185603
0.03001172 -0.007923934 -0.009513951 -0.0041897325 -0.016660264 -0.019997442 -0.005827165 -0.027324859
0.014850345 -0.019661652 0.0024171986 0.004524769 0.0031100854 0.0064639063 -0.0060756556 -0.019447748
-0.010064746 -0.014243792 0.008543593 -0.012625439 0.03332683 0.01285313 -0.007809826 -0.008593333
0.01018638 -0.008002369 -0.015762672 -0.007054904 -0.019324936 -0.00085134193 -0.02265688 -0.021045575
-0.020463903 -0.009389457 -0.0014944576 0.007308329 -0.012902685 -0.01725173 -0.003623458 0.010113714
0.011054246 0.019660203 0.0018415283 0.008288726 -0.006894218 0.014189866 -0.009995794 0.008333522
-0.028443407 0.007845389 0.016247937 0.021085229 -0.0077681844 -0.00961873 -0.030636715 0.013236934
