checkpoint_actor_1.pth (torch_old, 183852 bytes, 6 tensors)

fc1.weight f4 [256, 48]
0	0xbe37d1bd	-0.17951103
1	0xbf310cef	-0.6916036
2	0xbd0b77aa	-0.034049667
3	0xbe61db9e	-0.22056434
4	0x3e8cfe5d	0.27537814
5	0xbe4bc3f2	-0.19898966
6	0xbced84b2	-0.028993938
7	0xbe2b3bde	-0.16722056
8	0xbe0c5229	-0.13703217
9	0xbf2081a6	-0.6269783
10	0xbe0fa538	-0.1402787
11	0xbe713fc7	-0.23559485
12	0xbda98f83	-0.08279326
13	0xbeabf6f9	-0.33586863
14	0xbda0ad8c	-0.078456014
15	0xbe1457a9	-0.14486565
16	0xbde9cc45	-0.114159144
17	0xbf462db5	-0.77413493
18	0xbddaf534	-0.106913
19	0xbe5534f9	-0.20820989
20	0xbef3afec	-0.47595155
21	0xbe9966d0	-0.29961252
22	0xbd8bfe4f	-0.06835615
23	0xbe0d6bdf	-0.13810681
24	0xbedca265	-0.43092647
25	0xbd7b407f	-0.061340805
26	0xbe0a8b97	-0.13529812
27	0xbdd29d82	-0.102839485
28	0xbe8e2e2f	-0.2776961
29	0xbe80f754	-0.25188696
30	0xbd25e366	-0.040500067
31	0xbdc7541b	-0.09732839
32	0xbec82220	-0.39088535
33	0xbd4a69c2	-0.049417265
34	0xbe30e494	-0.17274696
35	0xbd75c0c2	-0.05999828
36	0x3d80b93a	0.06285329
37	0xbeab13e1	-0.33413604
38	0xbe528821	-0.20559742
39	0xbc5450f4	-0.012958754
40	0xbed64a65	-0.41853634
41	0xbdbc5f5d	-0.091978766
42	0xbe451d42	-0.19249442
43	0x3d4a644d	0.04941206
44	0x3ef86171	0.48511842
45	0xbe96d701	-0.2946091
46	0xbe1557f5	-0.14584334
47	0x3da74702	0.081678405
48	0x3dcec0f1	0.100953944
49	0x3d8cd94f	0.06877386
50	0x3c2078cf	0.009794428
51	0xbde8dba9	-0.11370022
52	0xbd761ab9	-0.06008408
53	0xbe8b6516	-0.2722556
54	0x3d2f274b	0.042762082
55	0xbdb7ecf4	-0.08980742
56	0x3db11775	0.08647052
57	0x3d5aafce	0.053390317
58	0xbd6dc4c6	-0.058048986
59	0xbd64bb8f	-0.055842932
60	0xbe6d8cdb	-0.23198263
61	0xbe81a814	-0.25323546
62	0x3cff1b80	0.031141043
63	0xbc8adbdd	-0.016950542
64	0x3cddfa20	0.027096808
65	0x3d1c3043	0.038131963
66	0x3a375521	0.0006993581
67	0xbdc46e61	-0.095913656
68	0xbeca454f	-0.39506003
69	0x3de649f7	0.112445764
70	0xbc605441	-0.013691963
71	0xbe101f40	-0.14074421
72	0xbd543b07	-0.051814105
73	0x3f2a727e	0.6658095
74	0x3c8836e9	0.016627746
75	0x3f24a9fc	0.64321876
76	0x3c4f04ef	0.012635454
77	0xbe8e24b6	-0.27762383
78	0x3c50f58b	0.0127538545
79	0x3f17fdfa	0.5937191
80	0xbd064243	-0.032778036
81	0x3f2fa511	0.68611246
82	0x3c29c673	0.010362255
83	0xbd58c0ca	-0.052918233
84	0x3e685620	0.22689104
85	0xbeb909be	-0.36140245
86	0xbc874553	-0.016512549
87	0xbdf2a4ac	-0.11847815
88	0xbc9804c5	-0.018556962
89	0x3ecf58b8	0.40497375
90	0x3c47c323	0.01219252
91	0xbf8760d7	-1.0576428
92	0x3e9566f7	0.29180118
93	0x3e0c807a	0.13720885
94	0xbd700e5c	-0.058607444
95	0xbf8249a3	-1.0178722
96	0x3e8ec9be	0.27888292
97	0xbe742873	-0.23843555
98	0xbd5b519d	-0.05354463
99	0xbdee61ab	-0.116397224
100	0x3e6c13e7	0.23054467
101	0xbe15b0db	-0.14618246
102	0xbda696ff	-0.08134269
103	0xbcc12c00	-0.023580551
104	0x3e689540	0.22713184
105	0xbe826eae	-0.25475067
106	0xbdd95744	-0.10612348
107	0xbd01c99d	-0.031686414
108	0x3d8ec9d4	0.069720894
109	0xbdeffb47	-0.11717849
110	0xbe0c2100	-0.13684464
111	0xbde8f6c4	-0.11375192
112	0x3e527d63	0.20555644
113	0xbce8a65d	-0.02839964
114	0xbd5fb004	-0.05461122
115	0x3f131acf	0.5746278
116	0xbe70d9e2	-0.23520616
117	0xbdd3139c	-0.103064746
118	0xbd8fff3d	-0.07031105
119	0x3f16e5ce	0.58944404
120	0x3e99aafb	0.3001326
121	0xbe8f8b16	-0.28035802
122	0xbe4ea3c3	-0.20179658
123	0x3e6a867b	0.22902863
124	0xbe8840c0	-0.266119
125	0xbe165dc8	-0.14684212
126	0xbe08d8db	-0.13363974
127	0x3e5289da	0.20560399
128	0x3e4a1ebb	0.19738285
129	0xbdba012e	-0.09082256
130	0xbe4d4b47	-0.20048247
131	0x3e5c60e7	0.2152134
132	0xbdec17fc	-0.11528012
133	0xbdcd7df5	-0.1003379
134	0xbe0e09f7	-0.13870989
135	0x3def380d	0.11680613
136	0x3eb16a3f	0.34651372
137	0x3cb40141	0.021973254
138	0xb95f5b1f	-0.00021300883
139	0x3b440425	0.0029909697
140	0x3e60cfbc	0.21954244
141	0xbe0c593f	-0.1370592
142	0x3dd9db3e	0.1063752
143	0xbceb8fa7	-0.028755022
144	0xbe070318	-0.13184774
145	0x3fa515c2	1.2897265
146	0xbc361d68	-0.011115409
147	0x3dd861f3	0.10565557
148	0xbe9e3078	-0.30896354
149	0x3dc1c64c	0.0946165
150	0x3d160b92	0.036632128
151	0x3d23cea0	0.039991975
152	0xbe250288	-0.16114247
153	0x3f8f4fd4	1.1196237
154	0xbd70159a	-0.05861435
155	0xbddf85d0	-0.109141946
156	0xb829884b	-4.0419673e-05
157	0x3e49e2c6	0.19715413
158	0xbda5fcc5	-0.081048526
159	0xbdb10b4a	-0.08644731
160	0xbda5d4c6	-0.08097224
161	0x3f528fc1	0.822506
162	0x3e1ade29	0.1512381
163	0xbf097f08	-0.5370946
164	0x3ea7e029	0.32788208
165	0x3e9be26b	0.3044618
166	0x3d6a0d2c	0.057141468
167	0xbf042022	-0.5161153
168	0x3e2d4339	0.16920175
169	0x3eede273	0.4646183
170	0xbda9254c	-0.08259067
171	0xbe34398a	-0.17600074
172	0x3e57a251	0.21058013
173	0x3d68a517	0.056798067
174	0xbd61b9f6	-0.055108987
175	0xbe36fe34	-0.17870408
176	0x3dffa8ba	0.12483354
177	0x3ea13129	0.3148282
178	0xbe8ce379	-0.27517298
179	0xbea9a369	-0.33132485
180	0x3cf9fbf1	0.030515643
181	0x3e1c49bf	0.15262507
182	0xbe769c88	-0.2408315
183	0xbecb10c2	-0.39661223
184	0x3d739371	0.059466783
185	0x3e3d836a	0.18507162
186	0xbe0b5dc2	-0.13609985
187	0xbec9398c	-0.39301717
188	0xbe8985e7	-0.26859972
189	0x3ed4a627	0.41533014
190	0xbe616c1a	-0.22013894
191	0xbecfb0f0	-0.4056468
192	0x3ec06e8e	0.37584347
193	0x3dae7f95	0.08520428
194	0xbc0685e2	-0.008210631
195	0xbdb897b8	-0.09013313
196	0xbe361f19	-0.177853
197	0xbe80984f	-0.25116202
198	0x3d6fb7f7	0.058525052
199	0xbdedf2a6	-0.11618547
200	0x3eec0a7e	0.46101755
201	0x3d2f754f	0.042836484
202	0x3d5ee28d	0.054415274
203	0xbe284c21	-0.16435291
204	0xbc17d8ca	-0.009267995
205	0xbe3ef4b0	-0.18648028
206	0xbc514eef	-0.012775167
207	0xbdfdb502	-0.1238804
208	0x3eed9657	0.46403763
209	0x3d8802d0	0.066411614
210	0x3d76a43c	0.06021522
211	0xbe8d5557	-0.27604172
212	0x3cd8d91c	0.026470713
213	0xbe63da74	-0.22251302
214	0x3dd23025	0.10263089
215	0xbeaf39ac	-0.34223688
216	0x3ea870c2	0.32898527
217	0x3ea3ea97	0.32014915
218	0xbe1b5d46	-0.151723
219	0xbe6562c0	-0.22400951
220	0x3ddb9f61	0.107237585
221	0xbe5b4f8a	-0.2141706
222	0xbdbcde3c	-0.09222075
223	0xbdd465ec	-0.103710026
224	0x3e82ec5c	0.25570953
225	0x3e352a7f	0.17691992
226	0xbdc62541	-0.09675074
227	0xbe334043	-0.17504983
228	0x3b2aad56	0.0026043258
229	0xbe857aae	-0.2607016
230	0xbd2eb3e3	-0.042652022
231	0xbe72c56c	-0.23708123
232	0x3e77cde2	0.24199632
233	0x3e08fe56	0.13378271
234	0xbe1e6428	-0.15467894
235	0xbeac7383	-0.33681878
236	0x3d014179	0.03155658
237	0xbe7df9c4	-0.2480231
238	0xbdbd4811	-0.09242261
239	0xbec7ec15	-0.39047304
240	0x3eca78c0	0.3954525
241	0x3de45d8e	0.11150657
242	0xbd724fcf	-0.059158143
243	0xbe0f20a4	-0.13977295
244	0x3dba4b98	0.090964496
245	0xbe6f92e0	-0.23395872
246	0xbd2bfcce	-0.04198914
247	0xbe10a16e	-0.1412408
248	0x3ecf3925	0.40473285
249	0x3de7b4cf	0.113137834
250	0xbc99de05	-0.018782625
251	0xbe468f20	-0.19390535
252	0xbc0f2325	-0.008736406
253	0xbebc618e	-0.36793178
254	0xbd209276	-0.039202176
255	0xbe4abfe4	-0.19799763

fc1.bias f4 [256]
0	0x3e42d5ab	0.1902682
1	0xbdc9e702	-0.09858514
2	0xbe8335bd	-0.25626937
3	0xbe3f4bb7	-0.18681227
4	0xbeb59654	-0.35466254
5	0xbde6bfc5	-0.11267046
6	0xbe9b57d2	-0.3034044
7	0x3cc62085	0.024185428
8	0xbe157ecb	-0.14599149
9	0x3d5915c7	0.052999284
10	0xbeb87622	-0.36027628
11	0x3e27b0ea	0.16376081
12	0x3e138db2	0.14409521
13	0x3e4aed97	0.19817196
14	0xbeb16a16	-0.3465125
15	0x3d83b038	0.064300954
16	0xbea42bc8	-0.32064652
17	0xbea43027	-0.32067987
18	0xbe91e543	-0.28495225
19	0xbdb11907	-0.08647352
20	0xbd4c26d9	-0.049841736
21	0xbea2d36d	-0.3180193
22	0xbdeff6d6	-0.11717002
23	0xbdeafaa7	-0.114735894
24	0xbddc7366	-0.10764198
25	0xbd3c2cf4	-0.04594131
26	0xbcc2d6e4	-0.023784108
27	0xbe2cede0	-0.16887617
28	0x3e24438f	0.16041397
29	0xbda5fecf	-0.081052415
30	0xbeb504ad	-0.3535513
31	0xbdf31c12	-0.11870588
32	0x3e2b35e7	0.16719781
33	0x3c08f47a	0.008359069
34	0xbe0ea34e	-0.13929483
35	0xbdd7575b	-0.105147086
36	0xbe2d7127	-0.16937695
37	0xbe8349f4	-0.2564236
38	0xbedcb36c	-0.43105638
39	0xbe6d9ea3	-0.23205046
40	0xbe92a41b	-0.28640828
41	0xbea7bbe1	-0.32760528
42	0x39f39f65	0.0004646733
43	0x3d439167	0.04774609
44	0xbe88df1c	-0.2673272
45	0xbcde50f1	-0.027138205
46	0xbdcaabac	-0.09896025
47	0xbe6655ef	-0.22493719
48	0xbdbb9eb6	-0.09161131
49	0xbdc7ba61	-0.09752346
50	0xbebf7818	-0.37396312
51	0xbe8fd77b	-0.28094086
52	0xbeaf1d64	-0.3420211
53	0xbe80eb3e	-0.25179476
54	0xbdd443f8	-0.103645265
55	0xbe3e773c	-0.18600172
56	0xbdb47e32	-0.08813132
57	0xbe596ae3	-0.2123218
58	0x3d8c9963	0.06865194
59	0xbca2da1e	-0.019879397
60	0xbe364084	-0.17798048
61	0xbe8e9f66	-0.27855986
62	0xbe0cecd8	-0.13762224
63	0xbdbd39ba	-0.09239526
64	0xbcd8db17	-0.026471658
65	0xbe49549a	-0.19661179
66	0xbe8a608a	-0.27026778
67	0xbe733531	-0.2375076
68	0xbe8c8239	-0.27443102
69	0x3d2af056	0.04173311
70	0xbdb8a7b7	-0.09016364
71	0xbe639412	-0.22224453
72	0xbdd8d7f5	-0.105880655
73	0xbd3a0c7c	-0.045422062
74	0xbcb8154e	-0.022471096
75	0xbd9afe85	-0.07568077
76	0xbe42deec	-0.1903035
77	0xbe220547	-0.15822326
78	0xbe9da241	-0.30787852
79	0xbe46c403	-0.1941071
80	0xbe5cfc85	-0.21580704
81	0xbcda5774	-0.026653029
82	0xbdefa704	-0.117017776
83	0xbe91887a	-0.28424436
84	0xbe766941	-0.24063589
85	0xbe49f090	-0.19720674
86	0xbee7e128	-0.45288968
87	0xbd9f0cca	-0.07766111
88	0xbd024c0f	-0.031810816
89	0xbdaba049	-0.08380181
90	0xbe82c313	-0.25539455
91	0xbddb6d27	-0.107141785
92	0x3ca1777e	0.019710299
93	0xbd636b01	-0.05552197
94	0xbe189fca	-0.14904705
95	0xbdb459fb	-0.08806225
96	0xbd6d1d58	-0.057889313
97	0xbdeacc5b	-0.11464759
98	0xb9f74924	-0.00047166005
99	0x3da0d7c3	0.07853653
100	0xbe2d7719	-0.16939963
101	0xbed59cc9	-0.4172118
102	0xbdde3990	-0.10850823
103	0xbdd2f049	-0.10299737
104	0xbe0f6292	-0.14002445
105	0xbe5ee3da	-0.21766606
106	0xbe744119	-0.23852958
107	0xbebaae25	-0.36460987
108	0xbdc0721e	-0.09396766
109	0xbe6a4b4f	-0.2288029
110	0xbee0a068	-0.4387238
111	0xbe844d88	-0.25840402
112	0xbe99cd1a	-0.30039293
113	0xbd94020b	-0.07226952
114	0xbec6d9c4	-0.38838017
115	0xbea2b988	-0.31782174
116	0xbea88a05	-0.329178
117	0x3d044702	0.03229428
118	0xbeb34157	-0.35010788
119	0xbe029f70	-0.12756133
120	0xbea58304	-0.3232652
121	0xbe95a270	-0.29225492
122	0xbea5b45a	-0.3236416
123	0xbda4f73b	-0.08054968
124	0xbe8f44ac	-0.2798208
125	0xbdefb23b	-0.11703917
126	0xbe626fef	-0.22113012
127	0x3cf91247	0.030404223
128	0xbd9bd4f8	-0.0760898
129	0xbdbd3f5c	-0.092406005
130	0xbe69ae7b	-0.22820465
131	0xbe92ffc0	-0.28710747
132	0xbe6abb40	-0.22922993
133	0xbe859e27	-0.26097223
134	0xbe432677	-0.19057642
135	0xbd488f56	-0.04896482
136	0xbe8beaf0	-0.2732768
137	0xbe4a9305	-0.19782646
138	0xbe24b8f1	-0.16086175
139	0xbe9947bb	-0.29937539
140	0xbe74dd6b	-0.23912589
141	0xbea00ee7	-0.3126137
142	0xbd8dd970	-0.069262385
143	0xbe4fadf2	-0.20281199
144	0xbcaecca4	-0.021337815
145	0xbe2c98ae	-0.16855118
146	0xbcfe8f3f	-0.031074164
147	0xbe156c8e	-0.14592192
148	0xbdb8f010	-0.09030163
149	0xbe8bfb60	-0.2734022
150	0xbe1cf069	-0.15326084
151	0xbe3db5f5	-0.18526442
152	0xbdebf8ef	-0.1152209
153	0xbda9c956	-0.08290355
154	0xbc926f56	-0.017875355
155	0xbeb118c6	-0.34589213
156	0x3e19915e	0.1499686
157	0x3d1f6832	0.038917728
158	0xbe893c9a	-0.26804048
159	0xbe77b6a9	-0.24190773
160	0xbe8f763d	-0.28019896
161	0xbdec0fc2	-0.11526443
162	0x3be0a053	0.0068550496
163	0xbe2c3c31	-0.16819836
164	0xbd851f53	-0.06500115
165	0xbdee14b4	-0.116250426
166	0xbec31eef	-0.38109538
167	0x3ec43d0f	0.38327834
168	0xbe502724	-0.20327431
169	0xbe5e099e	-0.21683356
170	0xbc9e1b60	-0.019300163
171	0xbc3bb5f9	-0.01145696
172	0xbd6bfb30	-0.057612598
173	0xbc8fbd40	-0.017546296
174	0xbe885b77	-0.26632282
175	0xbdbf9e5f	-0.09356379
176	0xbd587e2a	-0.052854694
177	0x3cca65e1	0.024706783
178	0xbe078256	-0.13233313
179	0xbe3a3133	-0.1818283
180	0x3d8f0931	0.06984175
181	0xbe3c54b6	-0.1839169
182	0xbda8c683	-0.08240988
183	0xbd066f8c	-0.032821223
184	0xbec41614	-0.38298094
185	0x3e8d711f	0.27625367
186	0xbe0917bf	-0.13387965
187	0x3d6ceabc	0.057841048
188	0xbe195ef7	-0.14977632
189	0xbe6b44ee	-0.22975513
190	0xbd04ac4f	-0.03239089
191	0xbe260c65	-0.16215666
192	0xbe9f6b15	-0.31136385
193	0xbe03bb0d	-0.12864323
194	0xbe439225	-0.19098718
195	0xbe1a6c4c	-0.15080374
196	0xbe304f83	-0.17217831
197	0xbeb548a9	-0.35406998
198	0xbe87d90c	-0.2653278
199	0xbea247d3	-0.31695423
200	0xbdbc1903	-0.09184458
201	0x3b412ffa	0.002947806
202	0xbe846524	-0.25858414
203	0xbe8c75b7	-0.2743356
204	0xbe5bc7bb	-0.2146291
205	0xbd10c618	-0.035345167
206	0xbe00acff	-0.12565993
207	0xbe8f2536	-0.27958077
208	0xbe58ed1f	-0.21184205
209	0xbe437049	-0.19085802
210	0x3de69202	0.112583175
211	0xbed65330	-0.41860342
212	0xbd77243f	-0.0603373
213	0xbd780613	-0.060552668
214	0xbe444ea4	-0.19170624
215	0xbd0df00a	-0.034652747
216	0xbe806809	-0.25079373
217	0x3bb47250	0.005506791
218	0xbea3836d	-0.31936207
219	0xbe3d3ce9	-0.18480267
220	0xbe14630a	-0.14490905
221	0xbd476c1d	-0.04868709
222	0xbe7f838b	-0.24952523
223	0x3e88bd4c	0.26706922
224	0xbd80345f	-0.06259989
225	0x3e26f375	0.16303809
226	0xbec848de	-0.39118093
227	0xbde001e3	-0.1093786
228	0xbdadc174	-0.08484164
229	0x3d908f21	0.0705855
230	0x3e00dd8b	0.12584512
231	0xbe5a4444	-0.21315104
232	0xbe341542	-0.17586234
233	0xbe9f42e3	-0.31105718
234	0xbe912522	-0.28348643
235	0xbe09f3b8	-0.13471878
236	0xbe5306ee	-0.20608112
237	0xbdbee4ba	-0.0932097
238	0xbe323f45	-0.17406948
239	0x3cc87737	0.024470909
240	0x3e67aeed	0.22625323
241	0xbe6ba78d	-0.23013134
242	0xbe290ed1	-0.16509558
243	0xbe69f281	-0.22846414
244	0xbebd05ac	-0.3691839
245	0xbe89e864	-0.26935112
246	0x3ddfcd16	0.10927789
247	0xbe5b719d	-0.21430059
248	0xbe211edc	-0.15734428
249	0xbdb0ecfc	-0.08638951
250	0xbe3ebf2f	-0.18627618
251	0xbe916c2e	-0.28402847
252	0xbe57cea8	-0.21074927
253	0xbea7d948	-0.3278296
254	0xbe40d0b7	-0.18829618
255	0xbe7038d7	-0.23459183

fc2.weight f4 [128, 256]
0	0xbe34ebcb	-0.17668073
1	0x3d9d8cad	0.076928474
2	0xbbb282ed	-0.0054477365
3	0xbb71fd7e	-0.0036924775
4	0x3cbc52d6	0.022988718
5	0xbcf3142d	-0.029672706
6	0x3ddd1fa5	0.10797051
7	0xba4bff89	-0.0007781913
8	0xbdf5b688	-0.11997706
9	0xbd36ebb2	-0.04465837
10	0xbd502128	-0.05081287
11	0x3c7be26a	0.015373806
12	0xbe4dba18	-0.2009052
13	0xbdeffbff	-0.11717986
14	0x3db8801b	0.09008809
15	0xbb0be0c3	-0.0021343685
16	0xbe2a7931	-0.16647793
17	0xbcdad0f3	-0.026710963
18	0xbdc367dd	-0.09541295
19	0xbdb4c4d6	-0.08826606
20	0xbe451b05	-0.19248588
21	0xbde64152	-0.112429276
22	0xbe20055f	-0.15627049
23	0xbd07f6ea	-0.03319446
24	0xbe1df0a5	-0.1542383
25	0xbd2c8284	-0.042116657
26	0xbdb15762	-0.08659245
27	0x3d8ce6f3	0.068799876
28	0xbe835e31	-0.256578
29	0xbe07a22d	-0.13245459
30	0xbe1a505f	-0.15069722
31	0xbde885e9	-0.11353666
32	0x3d76ee9d	0.060286153
33	0xbd862cc4	-0.06551507
34	0xbd979b64	-0.07402685
35	0xbdb44185	-0.08801559
36	0xbdaaa993	-0.08333125
37	0xbd815afa	-0.063161805
38	0xbc8cb1a4	-0.01717455
39	0x3cf2359a	0.029566575
40	0xbd0adaad	-0.03389995
41	0xbc5e997a	-0.013586396
42	0xbe67f250	-0.22651029
43	0xbe020a94	-0.12699348
44	0xbe1cbe69	-0.1530701
45	0xbd97d53a	-0.074137166
46	0xbcec4820	-0.028842986
47	0x3cda5fce	0.026657011
48	0xbe3556fe	-0.17708966
49	0x3d6ae608	0.05734828
50	0x3cda97d9	0.026683735
51	0xbcf0875e	-0.029361423
52	0x3d5cf057	0.053940143
53	0xbdc650e0	-0.096833944
54	0x3da5dad7	0.08098381
55	0xbdee44cc	-0.11634216
56	0xbdf0bbb4	-0.117545515
57	0xbcf4b979	-0.029873597
58	0xbe16d446	-0.14729413
59	0xbdc93a64	-0.0982559
60	0x3e17f755	0.14840443
61	0x3dc79dbc	0.09746882
62	0xbc41bd08	-0.011824854
63	0x3c3a1c25	0.011359249
64	0x3dae47ca	0.085097864
65	0x3d741446	0.059589647
66	0xbcfcaac5	-0.030843148
67	0xbd199587	-0.037496116
68	0xbd88f3c7	-0.06687122
69	0x3c81deaf	0.015853254
70	0x3d1c1821	0.03810895
71	0xbe2027a6	-0.15640125
72	0xbd95204b	-0.0728155
73	0xbbd0e6d9	-0.0063751754
74	0x3bcd294c	0.0062610265
75	0xbd0b7b72	-0.034053273
76	0x3ce6fb08	0.028195873
77	0xbd18aa0e	-0.03727155
78	0xbc0112fb	-0.00787806
79	0xbd49f667	-0.049307253
80	0xbdb27241	-0.087131985
81	0x3d8d9f90	0.069152
82	0x3d9ee19a	0.07757874
83	0xbd8fcc06	-0.07021336
84	0x3d301c40	0.04299569
85	0x3c4cb991	0.012495414
86	0x3cc25ec2	0.023726825
87	0xbd16d08b	-0.036819976
88	0xbb7a1354	-0.0038158493
89	0x3b3ade66	0.0028513907
90	0xbe0efec9	-0.1396438
91	0xbe95bc28	-0.29245114
92	0xbe2681b3	-0.16260414
93	0xbd59df4f	-0.05319148
94	0xbe02f7ee	-0.1278989
95	0x3d56ab6d	0.052409578
96	0xbdce12bb	-0.10062166
97	0x3e0cf7b3	0.13766365
98	0x3d6a2c93	0.057171416
99	0x3da6b12a	0.0813926
100	0x3db9ec20	0.090782404
101	0x3cd20ed9	0.025641846
102	0x3e0d33dc	0.13789314
103	0x3be1f291	0.0068953712
104	0xbdb1846f	-0.08667838
105	0x3d490453	0.04907639
106	0x3dac45dd	0.08411763
107	0xbdb526b2	-0.08845271
108	0xbca9447e	-0.020662542
109	0xbdaafa3d	-0.083485104
110	0x3db3ded9	0.08782739
111	0x3e04eefe	0.12981793
112	0xbc0da247	-0.008644647
113	0xbe7c3a88	-0.24631703
114	0xbdb4db5e	-0.088309035
115	0xbd10b78b	-0.03533129
116	0xbd966261	-0.07342983
117	0xbdd4158d	-0.10355673
118	0xbd9bfb35	-0.07616273
119	0xbc973f7d	-0.01846289
120	0xbd6eb751	-0.058280293
121	0xbdd45189	-0.10367114
122	0xbe80d5c4	-0.2516309
123	0xbdaf2603	-0.08552172
124	0x3d2d8adc	0.042368755
125	0xbdec5e2c	-0.11541399
126	0x3dd51fef	0.104064815
127	0xbe1fdf70	-0.15612578
128	0xbdcd2ce1	-0.100183256
129	0xbd007762	-0.031363852
130	0xbde27a43	-0.11058476
131	0xbdb9e823	-0.0907748
132	0xbe6baa9a	-0.23014298
133	0xbe040b50	-0.1289494
134	0x3d4332e6	0.047655962
135	0xbdb38e54	-0.08767381
136	0x3c847011	0.016166719
137	0x3e15d7f4	0.14633161
138	0x3d6b984d	0.057518292
139	0xbdd5c441	-0.10437823
140	0x3d5a5ef2	0.053313203
141	0x3d552d2f	0.052045044
142	0x3cfc19bf	0.030773995
143	0xbe182a87	-0.14859973
144	0xbd14f16f	-0.03636306
145	0x3d22c3ec	0.039737627
146	0xbd8d1f1c	-0.06890699
147	0xbc90c949	-0.017674105
148	0x3e36cbac	0.17851132
149	0x3bcd11bc	0.0062582176
150	0xbdb625bf	-0.08893918
151	0xbe14bbcb	-0.14524762
152	0x3e205671	0.15657975
153	0xbdfeee38	-0.1244778
154	0xbdb765c4	-0.08954957
155	0xbde7ebd8	-0.113242805
156	0xbde8aa03	-0.11360552
157	0xbd85d2d1	-0.06534351
158	0x3d303e61	0.04302824
159	0xbd5685f5	-0.052373845
160	0xbdcea420	-0.10089898
161	0xbe0c0441	-0.13673498
162	0x3d1a0b5f	0.0376085
163	0xbddf585a	-0.109055236
164	0x3d931008	0.07180792
165	0x3dea9571	0.11454285
166	0x3d2abe41	0.041685347
167	0xbcd67db9	-0.026182996
168	0x3aa84f58	0.0012841029
169	0xbd0d2f1c	-0.034468755
170	0xbe43171e	-0.19051787
171	0xbdf2b420	-0.11850762
172	0x3bfb30de	0.0076657375
173	0xbc261575	-0.010136952
174	0x3e0154a9	0.12629952
175	0xbe28f540	-0.16499805
176	0x3e16a487	0.147112
177	0xbda56764	-0.08076361
178	0x3d0bd148	0.034135133
179	0x3dcd70e8	0.10031301
180	0x3d0eed25	0.034894127
181	0x3dba0a86	0.090840384
182	0x3d2a12e5	0.041521925
183	0x3bf533d8	0.007482987
184	0xbc2ef45e	-0.010678379
185	0xbd92592d	-0.07145915
186	0x3cc67d7b	0.024229756
187	0xbdd0a643	-0.10187962
188	0xbdbbde91	-0.091733105
189	0x3db09925	0.0862296
190	0xbd399355	-0.045306522
191	0xbd73b53e	-0.059499018
192	0x3d813158	0.0630824
193	0x3d6a1f5a	0.057158805
194	0xbc515f4d	-0.012779069
195	0xbcc021e5	-0.023453662
196	0xbe041960	-0.12900305
197	0x3b95e2b8	0.004574146
198	0x3d320266	0.04345932
199	0xbdfe114d	-0.124056436
200	0x3cafc534	0.021456338
201	0xbd0cc118	-0.034363836
202	0xbacef0d3	-0.0015788324
203	0x3d1b7abd	0.03795885
204	0xbd2e29be	-0.042520277
205	0x3ca27c2f	0.019834606
206	0xbdb9ad6b	-0.0906628
207	0xbcd939bf	-0.026516793
208	0xbd50f78d	-0.051017333
209	0x3d5a42ee	0.053286485
210	0xbdb7068c	-0.089367956
211	0xbe098456	-0.13429388
212	0xbdd8dd1a	-0.10589047
213	0x3db9a929	0.09065468
214	0xbc0e6162	-0.00869021
215	0xbe2e4791	-0.17019488
216	0xbcc1b4be	-0.023645755
217	0x3c8c2fe9	0.01711269
218	0x3dfc80b7	0.12329238
219	0xbda9eb47	-0.08296829
220	0x3dae2573	0.085032366
221	0xbe09d0d7	-0.13458572
222	0x3dd2b10e	0.10287677
223	0xbddbc3c9	-0.107307024
224	0xbcac6e2e	-0.021048632
225	0xbe281156	-0.16412863
226	0x3e4dcfdd	0.20098825
227	0x3cea42de	0.028596338
228	0x3cd3ffdd	0.025878841
229	0xbde88c89	-0.1135493
230	0xbceded89	-0.02904393
231	0x3d1c0b4c	0.03809671
232	0xbd831ee9	-0.0640238
233	0xbcdb38ab	-0.02676042
234	0xbda2ac94	-0.07943073
235	0xbd68aa52	-0.056803055
236	0xbd9ccdf1	-0.07656468
237	0x3d5b6682	0.053564556
238	0x3bd8914a	0.0066091167
239	0xbd99c740	-0.07508707
240	0xbd6cf5c3	-0.057851564
241	0xbe75243c	-0.23939604
242	0x3e003424	0.1251989
243	0xbdafa2cc	-0.08575973
244	0xbdfcf5fe	-0.12351607
245	0xbd7e1d97	-0.062039938
246	0x3c9a1139	0.01880704
247	0xbcf2c265	-0.02963371
248	0x3ba37229	0.004987974
249	0xbdc2e9ae	-0.09517227
250	0xbe4bf1ae	-0.19916412
251	0x3c8aa22e	0.016923036
252	0xbc0fd647	-0.008779115
253	0x3daca3a6	0.08429651
254	0xbe1965cd	-0.1498024
255	0x3d3eee4b	0.046613973

fc2.bias f4 [128]
0	0xbdfbcd5f	-0.12295031
1	0x3cba1758	0.02271621
2	0xbca3d576	-0.019999247
3	0xbe68da67	-0.22739564
4	0xbeaf101c	-0.34191978
5	0xbde20947	-0.11036926
6	0xbdbd04b0	-0.0922941
7	0x3d1c835e	0.03821122
8	0x3c7d3120	0.015453607
9	0xbe376716	-0.17910418
10	0xbd57809d	-0.05261289
11	0xbd9a907f	-0.07547092
12	0xbde71768	-0.11283761
13	0x3cfad83e	0.03062069
14	0xbcc7160b	-0.024302503
15	0xbec08f53	-0.37609348
16	0xbe1cc57f	-0.15309714
17	0xbde80aad	-0.11330161
18	0xbe2f41d9	-0.17114963
19	0xbcdb7b85	-0.026792297
20	0xbe1047c4	-0.14089876
21	0xbd21bda1	-0.039487485
22	0xbd122486	-0.035679363
23	0xbdefb8e9	-0.11705191
24	0xbdb370cc	-0.08761749
25	0xbc21f141	-0.00988418
26	0xbe0b0086	-0.13574418
27	0xbe130f33	-0.14361267
28	0xbdc4b022	-0.09603907
29	0xbdb694b0	-0.08915079
30	0xbe8dd56e	-0.27701896
31	0xbd0e74d2	-0.034779377
32	0xbe1a13c0	-0.15046597
33	0xbd9707b3	-0.073745154
34	0xbd66dbf8	-0.056362122
35	0xbe621039	-0.22076501
36	0xbe7e99fe	-0.24863431
37	0xbe320b4b	-0.1738712
38	0xbea85755	-0.3287913
39	0xbe2d9314	-0.16950637
40	0xbdb0f2d1	-0.086400636
41	0xbd98f433	-0.07468452
42	0xbcf6ed7e	-0.030142542
43	0xbecf91be	-0.4054088
44	0xbd7dfbea	-0.062007822
45	0xbe740af3	-0.23832302
46	0x3d35a14d	0.04434328
47	0xbe7e76b7	-0.24849974
48	0x3e245316	0.1604732
49	0xbe05f36d	-0.13081141
50	0x3dda7625	0.106670655
51	0x3d2be621	0.041967515
52	0xbd91fde4	-0.07128504
53	0xbe59dc6d	-0.21275492
54	0xbe459c68	-0.19297945
55	0xbe175e36	-0.14782032
56	0xbe7a7203	-0.24457555
57	0xbda029ae	-0.0782045
58	0xbd128fb0	-0.035781562
59	0xbe3a557c	-0.18196672
60	0xbdf5a9ca	-0.11995275
61	0xbe454abb	-0.19266789
62	0xbd55a04d	-0.052154828
63	0xbd3ad3a6	-0.045612
64	0xbe4b7d98	-0.19872129
65	0x3d4ee8a1	0.05051482
66	0xbeaf97d1	-0.34295514
67	0xbec19728	-0.37810636
68	0x3ba7aa7f	0.0051167603
69	0xbbc72173	-0.0060769855
70	0xbdca90e1	-0.09890915
71	0xbdff71db	-0.12472888
72	0xbd5d7995	-0.054071028
73	0xbd80725d	-0.06271813
74	0xbecc499e	-0.39899915
75	0xbe7ba662	-0.24575189
76	0xbe170c13	-0.147507
77	0xbdb8b3d9	-0.09018678
78	0xbe2a7007	-0.16644298
79	0xbe3af2b8	-0.18256652
80	0xbd86c7f7	-0.06581109
81	0xbe5005d9	-0.2031473
82	0xbe0dbd92	-0.13841847
83	0xbdcd98c9	-0.10038907
84	0xbd79f5e4	-0.061025515
85	0xbd5d4ead	-0.05403011
86	0xbd818092	-0.06323351
87	0xbe4e38e4	-0.2013889
88	0xbdcd1e2b	-0.1001552
89	0xbd834fa0	-0.06411672
90	0xbe3157a1	-0.17318584
91	0xbc98d3ea	-0.018655736
92	0xbdf08b84	-0.117453605
93	0xbe83a649	-0.25712803
94	0xbe82bd60	-0.25535107
95	0xbc2c9447	-0.010533399
96	0xbe57d7c1	-0.21078397
97	0xbe059a98	-0.13047254
98	0xbdabb24d	-0.083836176
99	0xbd8f1044	-0.06985524
100	0xbdd85759	-0.10563535
101	0x3e81575b	0.2526196
102	0xbdf65736	-0.12028353
103	0xbd8f4b03	-0.06996729
104	0xbeb35fb6	-0.3503396
105	0xbde4f282	-0.11179067
106	0xbe118baa	-0.14213434
107	0xbde42e8e	-0.11141692
108	0xbe440574	-0.19142705
109	0xbda72854	-0.08161989
110	0xbcc448d8	-0.023960516
111	0xbe66f40b	-0.22554033
112	0xbe8856a0	-0.2662859
113	0xbe18c1c1	-0.14917661
114	0xbdbe1158	-0.09280652
115	0xbe24918d	-0.16071148
116	0xbe9a1906	-0.30097216
117	0xbda9cb16	-0.08290689
118	0xba808d9c	-0.0009807828
119	0xbdd81f3c	-0.105528325
120	0xbd8f64a0	-0.070016146
121	0xbdff4b1e	-0.12465499
122	0xbeaa4396	-0.3325469
123	0x39fa3cc2	0.00047728984
124	0x3dcdef0b	0.100553595
125	0xbd9df3e9	-0.07712538
126	0xbe07bfba	-0.13256732
127	0xbcb0bdf6	-0.021574955

fc3.weight f4 [2, 128]
0	0xbd6653da	-0.05623231
1	0xbda0c736	-0.078504965
2	0xbe0f2630	-0.13979411
3	0x3e3f692a	0.1869246
4	0xbd298ec6	-0.041395925
5	0xbded5ded	-0.115901805
6	0xbcd327a6	-0.025775742
7	0xbe4e6ca3	-0.20158629
8	0x3e21ce07	0.1580125
9	0x3d8c5818	0.0685274
10	0xba18b4d8	-0.00058252877
11	0x3d4e426f	0.050356325
12	0xbc5f8960	-0.013643593
13	0x3dcf4a0e	0.10121547
14	0xbe9884c0	-0.2978878
15	0x3d0478d2	0.032341786
16	0xbe62fa10	-0.22165704
17	0x3d847fe3	0.06469705
18	0x3cdcb523	0.026941841
19	0xbe2dc317	-0.16968952
20	0xbe380dfd	-0.17974086
21	0x3e1da69b	0.15395586
22	0xbd903a48	-0.07042366
23	0xbd2dcfcb	-0.042434495
24	0x3c061457	0.00818356
25	0x3e90e746	0.28301448
26	0xbe4dfd1d	-0.20116086
27	0x3e838b68	0.25692296
28	0x3c929d11	0.01789716
29	0xbc9b41c8	-0.018952265
30	0xbdbebc91	-0.0931331
31	0xbe0d5948	-0.1380359
32	0xbe6f2cc5	-0.23356922
33	0xbe91800a	-0.28418
34	0x3e5b1dcf	0.2139809
35	0xbdfc8b4d	-0.12331257
36	0x3bdb25e2	0.0066878656
37	0xbe3104ba	-0.1728696
38	0x3e8eb429	0.27871826
39	0x3e2d0c8f	0.16899322
40	0xbd739fe5	-0.05947866
41	0xbdea4419	-0.1143877
42	0xbdbe2b33	-0.09285583
43	0xbe3eaf8f	-0.18621658
44	0x3e83f952	0.25776154
45	0x3d5fc48a	0.054630794
46	0xbd18a41f	-0.037265893
47	0xbe304376	-0.17213234
48	0xbe6eb48e	-0.23311064
49	0xbc1e108d	-0.009647501
50	0xbeac0cd2	-0.3360353
51	0xbd0dd3dd	-0.034625877
52	0x3a38cd54	0.0007049639
53	0xbe76d8d7	-0.24106155
54	0x3c6ca77b	0.014444227
55	0xbc84ce10	-0.01621154
56	0x3d2cff60	0.042235732
57	0xbcb06db2	-0.021536682
58	0xbea93632	-0.3304916
59	0x3cda4b2b	0.026647171
60	0x3ddd51cb	0.108066164
61	0x3e4c15c8	0.19930184
62	0xbd907f33	-0.07055511
63	0xbdfad1a9	-0.12247021
64	0x3e113281	0.14179422
65	0xbbc61ee9	-0.0060461652
66	0x3cff2c36	0.031149011
67	0xbe4c3643	-0.19942574
68	0x3d0719b8	0.03298351
69	0xbb9b3cc6	-0.0047374694
70	0x3e2c0626	0.1679922
71	0xbd500b10	-0.0507918
72	0xbcdfc246	-0.027314316
73	0x3d172fd1	0.036910836
74	0xbc2646d2	-0.010148721
75	0xbd47c47b	-0.048771363
76	0xbe4b6d7a	-0.1986598
77	0xbe80b1da	-0.2513569
78	0xbd35c059	-0.04437289
79	0xbdb22989	-0.086993285
80	0xbceee2ab	-0.029160818
81	0xbeadfb45	-0.33980766
82	0xbc23d00d	-0.009998334
83	0x3c3473af	0.011013909
84	0xbbf95f84	-0.0076102633
85	0x3b511bee	0.0031907517
86	0x3a10eeab	0.00055287284
87	0xbe8ebb13	-0.278771
88	0x3e7d5f94	0.24743491
89	0x3d075de7	0.033048537
90	0x3e817b13	0.2528921
91	0xbe0da5a7	-0.13832723
92	0x3d22009e	0.03955137
93	0x3c5ee7f2	0.013605105
94	0xbd452510	-0.04813105
95	0xba1bd281	-0.0005944148
96	0xbeba8a5b	-0.36433682
97	0xbc8d8d2a	-0.017279226
98	0x3da52ee7	0.080655865
99	0xbdb70fdc	-0.08938572
100	0xbca86dae	-0.020560112
101	0x3d9f82d3	0.077886246
102	0x3e9970fd	0.29969016
103	0x3c4d5ec7	0.012534804
104	0x3defe059	0.11712713
105	0xbb9ca385	-0.0047802352
106	0x3dab5107	0.08365064
107	0x3e2fef4f	0.17181133
108	0xbe890de3	-0.26768407
109	0xbc0725e2	-0.008248778
110	0xbe55f7ca	-0.20895305
111	0xbea5dd3c	-0.3239535
112	0xbe122d67	-0.14275132
113	0xbe30312e	-0.1720626
114	0xbdab7b68	-0.08373147
115	0x3e4a1a4e	0.19736597
116	0x3bfec4ff	0.0077749486
117	0xbc920385	-0.017823944
118	0x3c664e31	0.014056728
119	0xbc65eb77	-0.01403319
120	0x3d7b7a52	0.06139595
121	0xbe04216b	-0.12903373
122	0xbed7c2f9	-0.4214094
123	0x3dc9f412	0.09861006
124	0x3b6b82f1	0.0035936201
125	0xbe08a2f1	-0.13343407
126	0x3db49097	0.08816641
127	0x3cb532fc	0.022119038
128	0x3b1e77fd	0.0024180405
129	0xbd91e4cd	-0.071237184
130	0xbead424e	-0.3383965
131	0xbe5eeba6	-0.2176958
132	0x3ec29a0d	0.38008156
133	0xbe49549f	-0.19661187
134	0xbc5421eb	-0.01294754
135	0xbc75f1b9	-0.015011244
136	0x3c910842	0.017704133
137	0x3d3dd33e	0.046344034
138	0xbc1f3ab4	-0.009718586
139	0xbdc03a4f	-0.093861215
140	0xbc15bcce	-0.009139253
141	0x3ecad15f	0.39612862
142	0xbdb19d97	-0.08672636
143	0xbeb08f16	-0.34484166
144	0xbe3105f7	-0.17287432
145	0xbd99a0bf	-0.07501363
146	0x3ddb7817	0.10716265
147	0x3e52b007	0.20574962
148	0x3d82753a	0.063700154
149	0x3ee54ea7	0.4478657
150	0xbd1ae991	-0.037820403
151	0x3e42ea44	0.19034678
152	0xbe9cd907	-0.3063433
153	0xbd855c47	-0.06511741
154	0x3d73af68	0.059493452
155	0xbe96267c	-0.29326236
156	0x3b96eab7	0.004605617
157	0x3a888c51	0.0010417794
158	0xbe727802	-0.23678592
159	0x3d4b4361	0.049624804
160	0xbdf89f3d	-0.12139747
161	0xbcd52366	-0.026017856
162	0xbcb8549a	-0.022501279
163	0xba1a611b	-0.00058891036
164	0x3ed9fc5d	0.4257535
165	0xbea29dc3	-0.31760988
166	0x3d86e026	0.06585722
167	0xbee26cd9	-0.4422367
168	0xbd3f7763	-0.046744715
169	0x3e2cefe9	0.16888393
170	0x3e029462	0.12751916
171	0x3d595abd	0.05306505
172	0xbdb7908d	-0.08963118
173	0xbe20d031	-0.15704419
174	0x3eb48459	0.35257223
175	0xbded84ad	-0.115975715
176	0xbec4fc9d	-0.3847398
177	0xbceff733	-0.029292678
178	0x3ddf7c78	0.109124124
179	0xbda2847f	-0.07935428
180	0xbb7eec63	-0.0038898222
181	0xbc5f291c	-0.013620641
182	0xbbf1cd08	-0.007379178
183	0xbee4404a	-0.445803
184	0xbe5614ba	-0.20906344
185	0x3b4c1132	0.003113818
186	0xbe17ba50	-0.14817166
187	0xbd940194	-0.072268635
188	0xbe30f99c	-0.17282718
189	0xbeb55d7c	-0.35422885
190	0x3a07d8d5	0.0005182152
191	0xbe9da3ca	-0.30789024
192	0xbe287f22	-0.16454747
193	0x3ec8b42b	0.39199957
194	0x3ebb8a63	0.36629018
195	0x3df5303c	0.119720906
196	0xbc165bbf	-0.009177147
197	0x3b6081a2	0.0034256955
198	0xbe888e32	-0.26670986
199	0x3eb4390b	0.3519977
200	0x3b4448c9	0.002995061
201	0xbe648df8	-0.22319782
202	0x3f00c339	0.50297886
203	0x3e783dde	0.2424235
204	0x3ca0aa07	0.019612325
205	0xbd7d31c2	-0.06181503
206	0xbe78a69f	-0.24282311
207	0xbdab2045	-0.08355764
208	0x3ca88d31	0.020575138
209	0x3d8d4164	0.06897238
210	0xbbc41960	-0.0059844702
211	0xbc2a1660	-0.010381311
212	0xbc118dc5	-0.008883898
213	0xbc932546	-0.01796211
214	0xbc785897	-0.01515784
215	0xbd66f323	-0.056384217
216	0x3c6e75bd	0.014554438
217	0x3d087370	0.033313215
218	0xbd30baa2	-0.043146737
219	0xbe027773	-0.12740879
220	0x3c1e9418	0.009678863
221	0x3ea3c5d9	0.31986883
222	0x3dbde8ea	0.092729405
223	0xbc52e547	-0.012872047
224	0xbe2824cf	-0.16420291
225	0xbc098a87	-0.008394844
226	0xbe17b2bf	-0.1481428
227	0xbdb7e3f2	-0.08979024
228	0xbd4729e4	-0.048623934
229	0x3eabed8a	0.33579665
230	0x3edcbdef	0.43113658
231	0xbcd27bdb	-0.025693825
232	0xbe0b2d73	-0.13591556
233	0x3eb1f9d4	0.34760916
234	0x3d337975	0.043817002
235	0xbdf5b25c	-0.1199691
236	0xbbb5b2c0	-0.0055449903
237	0x3f01ce51	0.5070544
238	0xbe939851	-0.28827146
239	0x3d27ed6c	0.040997908
240	0x3d65c64b	0.05609731
241	0xbe9203d9	-0.2851856
242	0xbb9c8394	-0.0047764275
243	0xbe8ed877	-0.27899525
244	0xbe235424	-0.15950066
245	0xbc9ec4e3	-0.019380992
246	0x3bf19f43	0.007373722
247	0xbd806622	-0.0626948
248	0xbddacee6	-0.10683994
249	0xbe0228a3	-0.12710814
250	0xbe61acdf	-0.22038601
251	0xbda57176	-0.080782816
252	0x3f0ed222	0.5578939
253	0xbd0f0938	-0.0349209
254	0xbea8601f	-0.32885835
255	0x3c61b8c3	0.013776961

fc3.bias f4 [2]
0	0x3d99a33f	0.0750184
1	0x3dccbbfa	0.09996791
